1.14.0
meta_info_def {
  stripped_op_list {
    op {
      name: "Add"
      input_arg {
        name: "x"
        type_attr: "T"
      }
      input_arg {
        name: "y"
        type_attr: "T"
      }
      output_arg {
        name: "z"
        type_attr: "T"
      }
      attr {
        name: "T"
        type: "type"
        allowed_values {
          list {
            type: DT_BFLOAT16
            type: DT_HALF
            type: DT_FLOAT
            type: DT_DOUBLE
            type: DT_UINT8
            type: DT_INT8
            type: DT_INT16
            type: DT_INT32
            type: DT_INT64
            type: DT_COMPLEX64
            type: DT_COMPLEX128
            type: DT_STRING
          }
        }
      }
    }
    op {
      name: "AddN"
      input_arg {
        name: "inputs"
        type_attr: "T"
        number_attr: "N"
      }
      output_arg {
        name: "sum"
        type_attr: "T"
      }
      attr {
        name: "N"
        type: "int"
        has_minimum: true
        minimum: 1
      }
      attr {
        name: "T"
        type: "type"
        allowed_values {
          list {
            type: DT_FLOAT
            type: DT_DOUBLE
            type: DT_INT32
            type: DT_UINT8
            type: DT_INT16
            type: DT_INT8
            type: DT_COMPLEX64
            type: DT_INT64
            type: DT_QINT8
            type: DT_QUINT8
            type: DT_QINT32
            type: DT_BFLOAT16
            type: DT_UINT16
            type: DT_COMPLEX128
            type: DT_HALF
            type: DT_UINT32
            type: DT_UINT64
            type: DT_VARIANT
          }
        }
      }
      is_aggregate: true
      is_commutative: true
    }
    op {
      name: "Assign"
      input_arg {
        name: "ref"
        type_attr: "T"
        is_ref: true
      }
      input_arg {
        name: "value"
        type_attr: "T"
      }
      output_arg {
        name: "output_ref"
        type_attr: "T"
        is_ref: true
      }
      attr {
        name: "T"
        type: "type"
      }
      attr {
        name: "validate_shape"
        type: "bool"
        default_value {
          b: true
        }
      }
      attr {
        name: "use_locking"
        type: "bool"
        default_value {
          b: true
        }
      }
      allows_uninitialized_input: true
    }
    op {
      name: "AssignVariableOp"
      input_arg {
        name: "resource"
        type: DT_RESOURCE
      }
      input_arg {
        name: "value"
        type_attr: "dtype"
      }
      attr {
        name: "dtype"
        type: "type"
      }
      is_stateful: true
    }
    op {
      name: "BiasAdd"
      input_arg {
        name: "value"
        type_attr: "T"
      }
      input_arg {
        name: "bias"
        type_attr: "T"
      }
      output_arg {
        name: "output"
        type_attr: "T"
      }
      attr {
        name: "T"
        type: "type"
        allowed_values {
          list {
            type: DT_FLOAT
            type: DT_DOUBLE
            type: DT_INT32
            type: DT_UINT8
            type: DT_INT16
            type: DT_INT8
            type: DT_COMPLEX64
            type: DT_INT64
            type: DT_QINT8
            type: DT_QUINT8
            type: DT_QINT32
            type: DT_BFLOAT16
            type: DT_UINT16
            type: DT_COMPLEX128
            type: DT_HALF
            type: DT_UINT32
            type: DT_UINT64
          }
        }
      }
      attr {
        name: "data_format"
        type: "string"
        default_value {
          s: "NHWC"
        }
        allowed_values {
          list {
            s: "NHWC"
            s: "NCHW"
          }
        }
      }
    }
    op {
      name: "Bucketize"
      input_arg {
        name: "input"
        type_attr: "T"
      }
      output_arg {
        name: "output"
        type: DT_INT32
      }
      attr {
        name: "T"
        type: "type"
        allowed_values {
          list {
            type: DT_INT32
            type: DT_INT64
            type: DT_FLOAT
            type: DT_DOUBLE
          }
        }
      }
      attr {
        name: "boundaries"
        type: "list(float)"
      }
    }
    op {
      name: "Cast"
      input_arg {
        name: "x"
        type_attr: "SrcT"
      }
      output_arg {
        name: "y"
        type_attr: "DstT"
      }
      attr {
        name: "SrcT"
        type: "type"
      }
      attr {
        name: "DstT"
        type: "type"
      }
      attr {
        name: "Truncate"
        type: "bool"
        default_value {
          b: false
        }
      }
    }
    op {
      name: "ConcatV2"
      input_arg {
        name: "values"
        type_attr: "T"
        number_attr: "N"
      }
      input_arg {
        name: "axis"
        type_attr: "Tidx"
      }
      output_arg {
        name: "output"
        type_attr: "T"
      }
      attr {
        name: "N"
        type: "int"
        has_minimum: true
        minimum: 2
      }
      attr {
        name: "T"
        type: "type"
      }
      attr {
        name: "Tidx"
        type: "type"
        default_value {
          type: DT_INT32
        }
        allowed_values {
          list {
            type: DT_INT32
            type: DT_INT64
          }
        }
      }
    }
    op {
      name: "Const"
      output_arg {
        name: "output"
        type_attr: "dtype"
      }
      attr {
        name: "value"
        type: "tensor"
      }
      attr {
        name: "dtype"
        type: "type"
      }
    }
    op {
      name: "Equal"
      input_arg {
        name: "x"
        type_attr: "T"
      }
      input_arg {
        name: "y"
        type_attr: "T"
      }
      output_arg {
        name: "z"
        type: DT_BOOL
      }
      attr {
        name: "T"
        type: "type"
        allowed_values {
          list {
            type: DT_BFLOAT16
            type: DT_HALF
            type: DT_FLOAT
            type: DT_DOUBLE
            type: DT_UINT8
            type: DT_INT8
            type: DT_INT16
            type: DT_INT32
            type: DT_INT64
            type: DT_COMPLEX64
            type: DT_QUINT8
            type: DT_QINT8
            type: DT_QINT32
            type: DT_STRING
            type: DT_BOOL
            type: DT_COMPLEX128
          }
        }
      }
      is_commutative: true
    }
    op {
      name: "ExpandDims"
      input_arg {
        name: "input"
        type_attr: "T"
      }
      input_arg {
        name: "dim"
        type_attr: "Tdim"
      }
      output_arg {
        name: "output"
        type_attr: "T"
      }
      attr {
        name: "T"
        type: "type"
      }
      attr {
        name: "Tdim"
        type: "type"
        default_value {
          type: DT_INT32
        }
        allowed_values {
          list {
            type: DT_INT32
            type: DT_INT64
          }
        }
      }
    }
    op {
      name: "Fill"
      input_arg {
        name: "dims"
        type_attr: "index_type"
      }
      input_arg {
        name: "value"
        type_attr: "T"
      }
      output_arg {
        name: "output"
        type_attr: "T"
      }
      attr {
        name: "T"
        type: "type"
      }
      attr {
        name: "index_type"
        type: "type"
        default_value {
          type: DT_INT32
        }
        allowed_values {
          list {
            type: DT_INT32
            type: DT_INT64
          }
        }
      }
    }
    op {
      name: "GatherNd"
      input_arg {
        name: "params"
        type_attr: "Tparams"
      }
      input_arg {
        name: "indices"
        type_attr: "Tindices"
      }
      output_arg {
        name: "output"
        type_attr: "Tparams"
      }
      attr {
        name: "Tparams"
        type: "type"
      }
      attr {
        name: "Tindices"
        type: "type"
        allowed_values {
          list {
            type: DT_INT32
            type: DT_INT64
          }
        }
      }
    }
    op {
      name: "GatherV2"
      input_arg {
        name: "params"
        type_attr: "Tparams"
      }
      input_arg {
        name: "indices"
        type_attr: "Tindices"
      }
      input_arg {
        name: "axis"
        type_attr: "Taxis"
      }
      output_arg {
        name: "output"
        type_attr: "Tparams"
      }
      attr {
        name: "batch_dims"
        type: "int"
        default_value {
          i: 0
        }
      }
      attr {
        name: "Tparams"
        type: "type"
      }
      attr {
        name: "Tindices"
        type: "type"
        allowed_values {
          list {
            type: DT_INT32
            type: DT_INT64
          }
        }
      }
      attr {
        name: "Taxis"
        type: "type"
        allowed_values {
          list {
            type: DT_INT32
            type: DT_INT64
          }
        }
      }
    }
    op {
      name: "GreaterEqual"
      input_arg {
        name: "x"
        type_attr: "T"
      }
      input_arg {
        name: "y"
        type_attr: "T"
      }
      output_arg {
        name: "z"
        type: DT_BOOL
      }
      attr {
        name: "T"
        type: "type"
        allowed_values {
          list {
            type: DT_FLOAT
            type: DT_DOUBLE
            type: DT_INT32
            type: DT_UINT8
            type: DT_INT16
            type: DT_INT8
            type: DT_INT64
            type: DT_BFLOAT16
            type: DT_UINT16
            type: DT_HALF
            type: DT_UINT32
            type: DT_UINT64
          }
        }
      }
    }
    op {
      name: "HashTableV2"
      output_arg {
        name: "table_handle"
        type: DT_RESOURCE
      }
      attr {
        name: "container"
        type: "string"
        default_value {
          s: ""
        }
      }
      attr {
        name: "shared_name"
        type: "string"
        default_value {
          s: ""
        }
      }
      attr {
        name: "use_node_name_sharing"
        type: "bool"
        default_value {
          b: false
        }
      }
      attr {
        name: "key_dtype"
        type: "type"
      }
      attr {
        name: "value_dtype"
        type: "type"
      }
      is_stateful: true
    }
    op {
      name: "HistogramSummary"
      input_arg {
        name: "tag"
        type: DT_STRING
      }
      input_arg {
        name: "values"
        type_attr: "T"
      }
      output_arg {
        name: "summary"
        type: DT_STRING
      }
      attr {
        name: "T"
        type: "type"
        default_value {
          type: DT_FLOAT
        }
        allowed_values {
          list {
            type: DT_FLOAT
            type: DT_DOUBLE
            type: DT_INT32
            type: DT_UINT8
            type: DT_INT16
            type: DT_INT8
            type: DT_INT64
            type: DT_BFLOAT16
            type: DT_UINT16
            type: DT_HALF
            type: DT_UINT32
            type: DT_UINT64
          }
        }
      }
    }
    op {
      name: "Identity"
      input_arg {
        name: "input"
        type_attr: "T"
      }
      output_arg {
        name: "output"
        type_attr: "T"
      }
      attr {
        name: "T"
        type: "type"
      }
    }
    op {
      name: "LessEqual"
      input_arg {
        name: "x"
        type_attr: "T"
      }
      input_arg {
        name: "y"
        type_attr: "T"
      }
      output_arg {
        name: "z"
        type: DT_BOOL
      }
      attr {
        name: "T"
        type: "type"
        allowed_values {
          list {
            type: DT_FLOAT
            type: DT_DOUBLE
            type: DT_INT32
            type: DT_UINT8
            type: DT_INT16
            type: DT_INT8
            type: DT_INT64
            type: DT_BFLOAT16
            type: DT_UINT16
            type: DT_HALF
            type: DT_UINT32
            type: DT_UINT64
          }
        }
      }
    }
    op {
      name: "LookupTableFindV2"
      input_arg {
        name: "table_handle"
        type: DT_RESOURCE
      }
      input_arg {
        name: "keys"
        type_attr: "Tin"
      }
      input_arg {
        name: "default_value"
        type_attr: "Tout"
      }
      output_arg {
        name: "values"
        type_attr: "Tout"
      }
      attr {
        name: "Tin"
        type: "type"
      }
      attr {
        name: "Tout"
        type: "type"
      }
      is_stateful: true
    }
    op {
      name: "LookupTableImportV2"
      input_arg {
        name: "table_handle"
        type: DT_RESOURCE
      }
      input_arg {
        name: "keys"
        type_attr: "Tin"
      }
      input_arg {
        name: "values"
        type_attr: "Tout"
      }
      attr {
        name: "Tin"
        type: "type"
      }
      attr {
        name: "Tout"
        type: "type"
      }
      is_stateful: true
    }
    op {
      name: "MatMul"
      input_arg {
        name: "a"
        type_attr: "T"
      }
      input_arg {
        name: "b"
        type_attr: "T"
      }
      output_arg {
        name: "product"
        type_attr: "T"
      }
      attr {
        name: "transpose_a"
        type: "bool"
        default_value {
          b: false
        }
      }
      attr {
        name: "transpose_b"
        type: "bool"
        default_value {
          b: false
        }
      }
      attr {
        name: "T"
        type: "type"
        allowed_values {
          list {
            type: DT_BFLOAT16
            type: DT_HALF
            type: DT_FLOAT
            type: DT_DOUBLE
            type: DT_INT32
            type: DT_INT64
            type: DT_COMPLEX64
            type: DT_COMPLEX128
          }
        }
      }
    }
    op {
      name: "Merge"
      input_arg {
        name: "inputs"
        type_attr: "T"
        number_attr: "N"
      }
      output_arg {
        name: "output"
        type_attr: "T"
      }
      output_arg {
        name: "value_index"
        type: DT_INT32
      }
      attr {
        name: "T"
        type: "type"
      }
      attr {
        name: "N"
        type: "int"
        has_minimum: true
        minimum: 1
      }
    }
    op {
      name: "MergeV2Checkpoints"
      input_arg {
        name: "checkpoint_prefixes"
        type: DT_STRING
      }
      input_arg {
        name: "destination_prefix"
        type: DT_STRING
      }
      attr {
        name: "delete_old_dirs"
        type: "bool"
        default_value {
          b: true
        }
      }
      is_stateful: true
    }
    op {
      name: "Mul"
      input_arg {
        name: "x"
        type_attr: "T"
      }
      input_arg {
        name: "y"
        type_attr: "T"
      }
      output_arg {
        name: "z"
        type_attr: "T"
      }
      attr {
        name: "T"
        type: "type"
        allowed_values {
          list {
            type: DT_BFLOAT16
            type: DT_HALF
            type: DT_FLOAT
            type: DT_DOUBLE
            type: DT_UINT8
            type: DT_INT8
            type: DT_UINT16
            type: DT_INT16
            type: DT_INT32
            type: DT_INT64
            type: DT_COMPLEX64
            type: DT_COMPLEX128
          }
        }
      }
      is_commutative: true
    }
    op {
      name: "NoOp"
    }
    op {
      name: "NotEqual"
      input_arg {
        name: "x"
        type_attr: "T"
      }
      input_arg {
        name: "y"
        type_attr: "T"
      }
      output_arg {
        name: "z"
        type: DT_BOOL
      }
      attr {
        name: "T"
        type: "type"
        allowed_values {
          list {
            type: DT_BFLOAT16
            type: DT_HALF
            type: DT_FLOAT
            type: DT_DOUBLE
            type: DT_UINT8
            type: DT_INT8
            type: DT_INT16
            type: DT_INT32
            type: DT_INT64
            type: DT_COMPLEX64
            type: DT_QUINT8
            type: DT_QINT8
            type: DT_QINT32
            type: DT_STRING
            type: DT_BOOL
            type: DT_COMPLEX128
          }
        }
      }
      is_commutative: true
    }
    op {
      name: "OneHot"
      input_arg {
        name: "indices"
        type_attr: "TI"
      }
      input_arg {
        name: "depth"
        type: DT_INT32
      }
      input_arg {
        name: "on_value"
        type_attr: "T"
      }
      input_arg {
        name: "off_value"
        type_attr: "T"
      }
      output_arg {
        name: "output"
        type_attr: "T"
      }
      attr {
        name: "axis"
        type: "int"
        default_value {
          i: -1
        }
      }
      attr {
        name: "T"
        type: "type"
      }
      attr {
        name: "TI"
        type: "type"
        default_value {
          type: DT_INT64
        }
        allowed_values {
          list {
            type: DT_UINT8
            type: DT_INT32
            type: DT_INT64
          }
        }
      }
    }
    op {
      name: "Pack"
      input_arg {
        name: "values"
        type_attr: "T"
        number_attr: "N"
      }
      output_arg {
        name: "output"
        type_attr: "T"
      }
      attr {
        name: "N"
        type: "int"
        has_minimum: true
        minimum: 1
      }
      attr {
        name: "T"
        type: "type"
      }
      attr {
        name: "axis"
        type: "int"
        default_value {
          i: 0
        }
      }
    }
    op {
      name: "Placeholder"
      output_arg {
        name: "output"
        type_attr: "dtype"
      }
      attr {
        name: "dtype"
        type: "type"
      }
      attr {
        name: "shape"
        type: "shape"
        default_value {
          shape {
            unknown_rank: true
          }
        }
      }
    }
    op {
      name: "PlaceholderWithDefault"
      input_arg {
        name: "input"
        type_attr: "dtype"
      }
      output_arg {
        name: "output"
        type_attr: "dtype"
      }
      attr {
        name: "dtype"
        type: "type"
      }
      attr {
        name: "shape"
        type: "shape"
      }
    }
    op {
      name: "Prod"
      input_arg {
        name: "input"
        type_attr: "T"
      }
      input_arg {
        name: "reduction_indices"
        type_attr: "Tidx"
      }
      output_arg {
        name: "output"
        type_attr: "T"
      }
      attr {
        name: "keep_dims"
        type: "bool"
        default_value {
          b: false
        }
      }
      attr {
        name: "T"
        type: "type"
        allowed_values {
          list {
            type: DT_FLOAT
            type: DT_DOUBLE
            type: DT_INT32
            type: DT_UINT8
            type: DT_INT16
            type: DT_INT8
            type: DT_COMPLEX64
            type: DT_INT64
            type: DT_QINT8
            type: DT_QUINT8
            type: DT_QINT32
            type: DT_BFLOAT16
            type: DT_UINT16
            type: DT_COMPLEX128
            type: DT_HALF
            type: DT_UINT32
            type: DT_UINT64
          }
        }
      }
      attr {
        name: "Tidx"
        type: "type"
        default_value {
          type: DT_INT32
        }
        allowed_values {
          list {
            type: DT_INT32
            type: DT_INT64
          }
        }
      }
    }
    op {
      name: "RandomUniform"
      input_arg {
        name: "shape"
        type_attr: "T"
      }
      output_arg {
        name: "output"
        type_attr: "dtype"
      }
      attr {
        name: "seed"
        type: "int"
        default_value {
          i: 0
        }
      }
      attr {
        name: "seed2"
        type: "int"
        default_value {
          i: 0
        }
      }
      attr {
        name: "dtype"
        type: "type"
        allowed_values {
          list {
            type: DT_HALF
            type: DT_BFLOAT16
            type: DT_FLOAT
            type: DT_DOUBLE
          }
        }
      }
      attr {
        name: "T"
        type: "type"
        allowed_values {
          list {
            type: DT_INT32
            type: DT_INT64
          }
        }
      }
      is_stateful: true
    }
    op {
      name: "Range"
      input_arg {
        name: "start"
        type_attr: "Tidx"
      }
      input_arg {
        name: "limit"
        type_attr: "Tidx"
      }
      input_arg {
        name: "delta"
        type_attr: "Tidx"
      }
      output_arg {
        name: "output"
        type_attr: "Tidx"
      }
      attr {
        name: "Tidx"
        type: "type"
        default_value {
          type: DT_INT32
        }
        allowed_values {
          list {
            type: DT_BFLOAT16
            type: DT_FLOAT
            type: DT_DOUBLE
            type: DT_INT32
            type: DT_INT64
          }
        }
      }
    }
    op {
      name: "ReadVariableOp"
      input_arg {
        name: "resource"
        type: DT_RESOURCE
      }
      output_arg {
        name: "value"
        type_attr: "dtype"
      }
      attr {
        name: "dtype"
        type: "type"
      }
      is_stateful: true
    }
    op {
      name: "RealDiv"
      input_arg {
        name: "x"
        type_attr: "T"
      }
      input_arg {
        name: "y"
        type_attr: "T"
      }
      output_arg {
        name: "z"
        type_attr: "T"
      }
      attr {
        name: "T"
        type: "type"
        allowed_values {
          list {
            type: DT_BFLOAT16
            type: DT_HALF
            type: DT_FLOAT
            type: DT_DOUBLE
            type: DT_UINT8
            type: DT_INT8
            type: DT_UINT16
            type: DT_INT16
            type: DT_INT32
            type: DT_INT64
            type: DT_COMPLEX64
            type: DT_COMPLEX128
          }
        }
      }
    }
    op {
      name: "Relu"
      input_arg {
        name: "features"
        type_attr: "T"
      }
      output_arg {
        name: "activations"
        type_attr: "T"
      }
      attr {
        name: "T"
        type: "type"
        allowed_values {
          list {
            type: DT_FLOAT
            type: DT_DOUBLE
            type: DT_INT32
            type: DT_UINT8
            type: DT_INT16
            type: DT_INT8
            type: DT_INT64
            type: DT_BFLOAT16
            type: DT_UINT16
            type: DT_HALF
            type: DT_UINT32
            type: DT_UINT64
            type: DT_QINT8
          }
        }
      }
    }
    op {
      name: "Reshape"
      input_arg {
        name: "tensor"
        type_attr: "T"
      }
      input_arg {
        name: "shape"
        type_attr: "Tshape"
      }
      output_arg {
        name: "output"
        type_attr: "T"
      }
      attr {
        name: "T"
        type: "type"
      }
      attr {
        name: "Tshape"
        type: "type"
        default_value {
          type: DT_INT32
        }
        allowed_values {
          list {
            type: DT_INT32
            type: DT_INT64
          }
        }
      }
    }
    op {
      name: "ResourceGather"
      input_arg {
        name: "resource"
        type: DT_RESOURCE
      }
      input_arg {
        name: "indices"
        type_attr: "Tindices"
      }
      output_arg {
        name: "output"
        type_attr: "dtype"
      }
      attr {
        name: "batch_dims"
        type: "int"
        default_value {
          i: 0
        }
      }
      attr {
        name: "validate_indices"
        type: "bool"
        default_value {
          b: true
        }
      }
      attr {
        name: "dtype"
        type: "type"
      }
      attr {
        name: "Tindices"
        type: "type"
        allowed_values {
          list {
            type: DT_INT32
            type: DT_INT64
          }
        }
      }
      is_stateful: true
    }
    op {
      name: "RestoreV2"
      input_arg {
        name: "prefix"
        type: DT_STRING
      }
      input_arg {
        name: "tensor_names"
        type: DT_STRING
      }
      input_arg {
        name: "shape_and_slices"
        type: DT_STRING
      }
      output_arg {
        name: "tensors"
        type_list_attr: "dtypes"
      }
      attr {
        name: "dtypes"
        type: "list(type)"
        has_minimum: true
        minimum: 1
      }
      is_stateful: true
    }
    op {
      name: "SaveV2"
      input_arg {
        name: "prefix"
        type: DT_STRING
      }
      input_arg {
        name: "tensor_names"
        type: DT_STRING
      }
      input_arg {
        name: "shape_and_slices"
        type: DT_STRING
      }
      input_arg {
        name: "tensors"
        type_list_attr: "dtypes"
      }
      attr {
        name: "dtypes"
        type: "list(type)"
        has_minimum: true
        minimum: 1
      }
      is_stateful: true
    }
    op {
      name: "ScalarSummary"
      input_arg {
        name: "tags"
        type: DT_STRING
      }
      input_arg {
        name: "values"
        type_attr: "T"
      }
      output_arg {
        name: "summary"
        type: DT_STRING
      }
      attr {
        name: "T"
        type: "type"
        allowed_values {
          list {
            type: DT_FLOAT
            type: DT_DOUBLE
            type: DT_INT32
            type: DT_UINT8
            type: DT_INT16
            type: DT_INT8
            type: DT_INT64
            type: DT_BFLOAT16
            type: DT_UINT16
            type: DT_HALF
            type: DT_UINT32
            type: DT_UINT64
          }
        }
      }
    }
    op {
      name: "Select"
      input_arg {
        name: "condition"
        type: DT_BOOL
      }
      input_arg {
        name: "t"
        type_attr: "T"
      }
      input_arg {
        name: "e"
        type_attr: "T"
      }
      output_arg {
        name: "output"
        type_attr: "T"
      }
      attr {
        name: "T"
        type: "type"
      }
    }
    op {
      name: "Shape"
      input_arg {
        name: "input"
        type_attr: "T"
      }
      output_arg {
        name: "output"
        type_attr: "out_type"
      }
      attr {
        name: "T"
        type: "type"
      }
      attr {
        name: "out_type"
        type: "type"
        default_value {
          type: DT_INT32
        }
        allowed_values {
          list {
            type: DT_INT32
            type: DT_INT64
          }
        }
      }
    }
    op {
      name: "ShardedFilename"
      input_arg {
        name: "basename"
        type: DT_STRING
      }
      input_arg {
        name: "shard"
        type: DT_INT32
      }
      input_arg {
        name: "num_shards"
        type: DT_INT32
      }
      output_arg {
        name: "filename"
        type: DT_STRING
      }
    }
    op {
      name: "Size"
      input_arg {
        name: "input"
        type_attr: "T"
      }
      output_arg {
        name: "output"
        type_attr: "out_type"
      }
      attr {
        name: "T"
        type: "type"
      }
      attr {
        name: "out_type"
        type: "type"
        default_value {
          type: DT_INT32
        }
        allowed_values {
          list {
            type: DT_INT32
            type: DT_INT64
          }
        }
      }
    }
    op {
      name: "Slice"
      input_arg {
        name: "input"
        type_attr: "T"
      }
      input_arg {
        name: "begin"
        type_attr: "Index"
      }
      input_arg {
        name: "size"
        type_attr: "Index"
      }
      output_arg {
        name: "output"
        type_attr: "T"
      }
      attr {
        name: "T"
        type: "type"
      }
      attr {
        name: "Index"
        type: "type"
        allowed_values {
          list {
            type: DT_INT32
            type: DT_INT64
          }
        }
      }
    }
    op {
      name: "SparseCross"
      input_arg {
        name: "indices"
        type: DT_INT64
        number_attr: "N"
      }
      input_arg {
        name: "values"
        type_list_attr: "sparse_types"
      }
      input_arg {
        name: "shapes"
        type: DT_INT64
        number_attr: "N"
      }
      input_arg {
        name: "dense_inputs"
        type_list_attr: "dense_types"
      }
      output_arg {
        name: "output_indices"
        type: DT_INT64
      }
      output_arg {
        name: "output_values"
        type_attr: "out_type"
      }
      output_arg {
        name: "output_shape"
        type: DT_INT64
      }
      attr {
        name: "N"
        type: "int"
        has_minimum: true
      }
      attr {
        name: "hashed_output"
        type: "bool"
      }
      attr {
        name: "num_buckets"
        type: "int"
        has_minimum: true
      }
      attr {
        name: "hash_key"
        type: "int"
      }
      attr {
        name: "sparse_types"
        type: "list(type)"
        has_minimum: true
        allowed_values {
          list {
            type: DT_INT64
            type: DT_STRING
          }
        }
      }
      attr {
        name: "dense_types"
        type: "list(type)"
        has_minimum: true
        allowed_values {
          list {
            type: DT_INT64
            type: DT_STRING
          }
        }
      }
      attr {
        name: "out_type"
        type: "type"
        allowed_values {
          list {
            type: DT_INT64
            type: DT_STRING
          }
        }
      }
      attr {
        name: "internal_type"
        type: "type"
        allowed_values {
          list {
            type: DT_INT64
            type: DT_STRING
          }
        }
      }
    }
    op {
      name: "SparseFillEmptyRows"
      input_arg {
        name: "indices"
        type: DT_INT64
      }
      input_arg {
        name: "values"
        type_attr: "T"
      }
      input_arg {
        name: "dense_shape"
        type: DT_INT64
      }
      input_arg {
        name: "default_value"
        type_attr: "T"
      }
      output_arg {
        name: "output_indices"
        type: DT_INT64
      }
      output_arg {
        name: "output_values"
        type_attr: "T"
      }
      output_arg {
        name: "empty_row_indicator"
        type: DT_BOOL
      }
      output_arg {
        name: "reverse_index_map"
        type: DT_INT64
      }
      attr {
        name: "T"
        type: "type"
      }
    }
    op {
      name: "SparseReshape"
      input_arg {
        name: "input_indices"
        type: DT_INT64
      }
      input_arg {
        name: "input_shape"
        type: DT_INT64
      }
      input_arg {
        name: "new_shape"
        type: DT_INT64
      }
      output_arg {
        name: "output_indices"
        type: DT_INT64
      }
      output_arg {
        name: "output_shape"
        type: DT_INT64
      }
    }
    op {
      name: "SparseSegmentMean"
      input_arg {
        name: "data"
        type_attr: "T"
      }
      input_arg {
        name: "indices"
        type_attr: "Tidx"
      }
      input_arg {
        name: "segment_ids"
        type: DT_INT32
      }
      output_arg {
        name: "output"
        type_attr: "T"
      }
      attr {
        name: "T"
        type: "type"
        allowed_values {
          list {
            type: DT_FLOAT
            type: DT_DOUBLE
          }
        }
      }
      attr {
        name: "Tidx"
        type: "type"
        default_value {
          type: DT_INT32
        }
        allowed_values {
          list {
            type: DT_INT32
            type: DT_INT64
          }
        }
      }
    }
    op {
      name: "SparseSegmentSum"
      input_arg {
        name: "data"
        type_attr: "T"
      }
      input_arg {
        name: "indices"
        type_attr: "Tidx"
      }
      input_arg {
        name: "segment_ids"
        type: DT_INT32
      }
      output_arg {
        name: "output"
        type_attr: "T"
      }
      attr {
        name: "T"
        type: "type"
        allowed_values {
          list {
            type: DT_FLOAT
            type: DT_DOUBLE
            type: DT_INT32
            type: DT_UINT8
            type: DT_INT16
            type: DT_INT8
            type: DT_INT64
            type: DT_BFLOAT16
            type: DT_UINT16
            type: DT_HALF
            type: DT_UINT32
            type: DT_UINT64
          }
        }
      }
      attr {
        name: "Tidx"
        type: "type"
        default_value {
          type: DT_INT32
        }
        allowed_values {
          list {
            type: DT_INT32
            type: DT_INT64
          }
        }
      }
    }
    op {
      name: "SparseToDense"
      input_arg {
        name: "sparse_indices"
        type_attr: "Tindices"
      }
      input_arg {
        name: "output_shape"
        type_attr: "Tindices"
      }
      input_arg {
        name: "sparse_values"
        type_attr: "T"
      }
      input_arg {
        name: "default_value"
        type_attr: "T"
      }
      output_arg {
        name: "dense"
        type_attr: "T"
      }
      attr {
        name: "validate_indices"
        type: "bool"
        default_value {
          b: true
        }
      }
      attr {
        name: "T"
        type: "type"
      }
      attr {
        name: "Tindices"
        type: "type"
        allowed_values {
          list {
            type: DT_INT32
            type: DT_INT64
          }
        }
      }
    }
    op {
      name: "StridedSlice"
      input_arg {
        name: "input"
        type_attr: "T"
      }
      input_arg {
        name: "begin"
        type_attr: "Index"
      }
      input_arg {
        name: "end"
        type_attr: "Index"
      }
      input_arg {
        name: "strides"
        type_attr: "Index"
      }
      output_arg {
        name: "output"
        type_attr: "T"
      }
      attr {
        name: "T"
        type: "type"
      }
      attr {
        name: "Index"
        type: "type"
        allowed_values {
          list {
            type: DT_INT32
            type: DT_INT64
          }
        }
      }
      attr {
        name: "begin_mask"
        type: "int"
        default_value {
          i: 0
        }
      }
      attr {
        name: "end_mask"
        type: "int"
        default_value {
          i: 0
        }
      }
      attr {
        name: "ellipsis_mask"
        type: "int"
        default_value {
          i: 0
        }
      }
      attr {
        name: "new_axis_mask"
        type: "int"
        default_value {
          i: 0
        }
      }
      attr {
        name: "shrink_axis_mask"
        type: "int"
        default_value {
          i: 0
        }
      }
    }
    op {
      name: "StringJoin"
      input_arg {
        name: "inputs"
        type: DT_STRING
        number_attr: "N"
      }
      output_arg {
        name: "output"
        type: DT_STRING
      }
      attr {
        name: "N"
        type: "int"
        has_minimum: true
        minimum: 1
      }
      attr {
        name: "separator"
        type: "string"
        default_value {
          s: ""
        }
      }
    }
    op {
      name: "Sub"
      input_arg {
        name: "x"
        type_attr: "T"
      }
      input_arg {
        name: "y"
        type_attr: "T"
      }
      output_arg {
        name: "z"
        type_attr: "T"
      }
      attr {
        name: "T"
        type: "type"
        allowed_values {
          list {
            type: DT_BFLOAT16
            type: DT_HALF
            type: DT_FLOAT
            type: DT_DOUBLE
            type: DT_UINT8
            type: DT_INT8
            type: DT_UINT16
            type: DT_INT16
            type: DT_INT32
            type: DT_INT64
            type: DT_COMPLEX64
            type: DT_COMPLEX128
          }
        }
      }
    }
    op {
      name: "Sum"
      input_arg {
        name: "input"
        type_attr: "T"
      }
      input_arg {
        name: "reduction_indices"
        type_attr: "Tidx"
      }
      output_arg {
        name: "output"
        type_attr: "T"
      }
      attr {
        name: "keep_dims"
        type: "bool"
        default_value {
          b: false
        }
      }
      attr {
        name: "T"
        type: "type"
        allowed_values {
          list {
            type: DT_FLOAT
            type: DT_DOUBLE
            type: DT_INT32
            type: DT_UINT8
            type: DT_INT16
            type: DT_INT8
            type: DT_COMPLEX64
            type: DT_INT64
            type: DT_QINT8
            type: DT_QUINT8
            type: DT_QINT32
            type: DT_BFLOAT16
            type: DT_UINT16
            type: DT_COMPLEX128
            type: DT_HALF
            type: DT_UINT32
            type: DT_UINT64
          }
        }
      }
      attr {
        name: "Tidx"
        type: "type"
        default_value {
          type: DT_INT32
        }
        allowed_values {
          list {
            type: DT_INT32
            type: DT_INT64
          }
        }
      }
    }
    op {
      name: "Switch"
      input_arg {
        name: "data"
        type_attr: "T"
      }
      input_arg {
        name: "pred"
        type: DT_BOOL
      }
      output_arg {
        name: "output_false"
        type_attr: "T"
      }
      output_arg {
        name: "output_true"
        type_attr: "T"
      }
      attr {
        name: "T"
        type: "type"
      }
    }
    op {
      name: "Tile"
      input_arg {
        name: "input"
        type_attr: "T"
      }
      input_arg {
        name: "multiples"
        type_attr: "Tmultiples"
      }
      output_arg {
        name: "output"
        type_attr: "T"
      }
      attr {
        name: "T"
        type: "type"
      }
      attr {
        name: "Tmultiples"
        type: "type"
        default_value {
          type: DT_INT32
        }
        allowed_values {
          list {
            type: DT_INT32
            type: DT_INT64
          }
        }
      }
    }
    op {
      name: "Transpose"
      input_arg {
        name: "x"
        type_attr: "T"
      }
      input_arg {
        name: "perm"
        type_attr: "Tperm"
      }
      output_arg {
        name: "y"
        type_attr: "T"
      }
      attr {
        name: "T"
        type: "type"
      }
      attr {
        name: "Tperm"
        type: "type"
        default_value {
          type: DT_INT32
        }
        allowed_values {
          list {
            type: DT_INT32
            type: DT_INT64
          }
        }
      }
    }
    op {
      name: "TruncatedNormal"
      input_arg {
        name: "shape"
        type_attr: "T"
      }
      output_arg {
        name: "output"
        type_attr: "dtype"
      }
      attr {
        name: "seed"
        type: "int"
        default_value {
          i: 0
        }
      }
      attr {
        name: "seed2"
        type: "int"
        default_value {
          i: 0
        }
      }
      attr {
        name: "dtype"
        type: "type"
        allowed_values {
          list {
            type: DT_HALF
            type: DT_BFLOAT16
            type: DT_FLOAT
            type: DT_DOUBLE
          }
        }
      }
      attr {
        name: "T"
        type: "type"
        allowed_values {
          list {
            type: DT_INT32
            type: DT_INT64
          }
        }
      }
      is_stateful: true
    }
    op {
      name: "Unique"
      input_arg {
        name: "x"
        type_attr: "T"
      }
      output_arg {
        name: "y"
        type_attr: "T"
      }
      output_arg {
        name: "idx"
        type_attr: "out_idx"
      }
      attr {
        name: "T"
        type: "type"
      }
      attr {
        name: "out_idx"
        type: "type"
        default_value {
          type: DT_INT32
        }
        allowed_values {
          list {
            type: DT_INT32
            type: DT_INT64
          }
        }
      }
    }
    op {
      name: "VarHandleOp"
      output_arg {
        name: "resource"
        type: DT_RESOURCE
      }
      attr {
        name: "container"
        type: "string"
        default_value {
          s: ""
        }
      }
      attr {
        name: "shared_name"
        type: "string"
        default_value {
          s: ""
        }
      }
      attr {
        name: "dtype"
        type: "type"
      }
      attr {
        name: "shape"
        type: "shape"
      }
      is_stateful: true
    }
    op {
      name: "VarIsInitializedOp"
      input_arg {
        name: "resource"
        type: DT_RESOURCE
      }
      output_arg {
        name: "is_initialized"
        type: DT_BOOL
      }
      is_stateful: true
    }
    op {
      name: "VariableV2"
      output_arg {
        name: "ref"
        type_attr: "dtype"
        is_ref: true
      }
      attr {
        name: "shape"
        type: "shape"
      }
      attr {
        name: "dtype"
        type: "type"
      }
      attr {
        name: "container"
        type: "string"
        default_value {
          s: ""
        }
      }
      attr {
        name: "shared_name"
        type: "string"
        default_value {
          s: ""
        }
      }
      is_stateful: true
    }
    op {
      name: "Where"
      input_arg {
        name: "input"
        type_attr: "T"
      }
      output_arg {
        name: "index"
        type: DT_INT64
      }
      attr {
        name: "T"
        type: "type"
        default_value {
          type: DT_BOOL
        }
        allowed_values {
          list {
            type: DT_FLOAT
            type: DT_DOUBLE
            type: DT_INT32
            type: DT_UINT8
            type: DT_INT16
            type: DT_INT8
            type: DT_COMPLEX64
            type: DT_INT64
            type: DT_QINT8
            type: DT_QUINT8
            type: DT_QINT32
            type: DT_BFLOAT16
            type: DT_UINT16
            type: DT_COMPLEX128
            type: DT_HALF
            type: DT_UINT32
            type: DT_UINT64
            type: DT_BOOL
          }
        }
      }
    }
    op {
      name: "ZerosLike"
      input_arg {
        name: "x"
        type_attr: "T"
      }
      output_arg {
        name: "y"
        type_attr: "T"
      }
      attr {
        name: "T"
        type: "type"
      }
    }
  }
  tags: "serve"
  tensorflow_version: "1.14.0"
  tensorflow_git_version: "v1.14.0-rc1-22-gaf24dc91b5"
  stripped_default_attrs: true
}
graph_def {
  node {
    name: "global_step/Initializer/zeros"
    op: "Const"
    attr {
      key: "_class"
      value {
        list {
          s: "loc:@global_step"
        }
      }
    }
    attr {
      key: "_output_shapes"
      value {
        list {
          shape {
          }
        }
      }
    }
    attr {
      key: "dtype"
      value {
        type: DT_INT64
      }
    }
    attr {
      key: "value"
      value {
        tensor {
          dtype: DT_INT64
          tensor_shape {
          }
          int64_val: 0
        }
      }
    }
  }
  node {
    name: "global_step"
    op: "VariableV2"
    attr {
      key: "_class"
      value {
        list {
          s: "loc:@global_step"
        }
      }
    }
    attr {
      key: "_output_shapes"
      value {
        list {
          shape {
          }
        }
      }
    }
    attr {
      key: "container"
      value {
        s: ""
      }
    }
    attr {
      key: "dtype"
      value {
        type: DT_INT64
      }
    }
    attr {
      key: "shape"
      value {
        shape {
        }
      }
    }
    attr {
      key: "shared_name"
      value {
        s: ""
      }
    }
  }
  node {
    name: "global_step/Assign"
    op: "Assign"
    input: "global_step"
    input: "global_step/Initializer/zeros"
    attr {
      key: "T"
      value {
        type: DT_INT64
      }
    }
    attr {
      key: "_class"
      value {
        list {
          s: "loc:@global_step"
        }
      }
    }
    attr {
      key: "_output_shapes"
      value {
        list {
          shape {
          }
        }
      }
    }
    attr {
      key: "use_locking"
      value {
        b: true
      }
    }
    attr {
      key: "validate_shape"
      value {
        b: true
      }
    }
  }
  node {
    name: "global_step/read"
    op: "Identity"
    input: "global_step"
    attr {
      key: "T"
      value {
        type: DT_INT64
      }
    }
    attr {
      key: "_class"
      value {
        list {
          s: "loc:@global_step"
        }
      }
    }
    attr {
      key: "_output_shapes"
      value {
        list {
          shape {
          }
        }
      }
    }
  }
  node {
    name: "target"
    op: "Placeholder"
    attr {
      key: "_output_shapes"
      value {
        list {
          shape {
            dim {
              size: -1
            }
          }
        }
      }
    }
    attr {
      key: "dtype"
      value {
        type: DT_INT32
      }
    }
    attr {
      key: "shape"
      value {
        shape {
          dim {
            size: -1
          }
        }
      }
    }
  }
  node {
    name: "Age"
    op: "Placeholder"
    attr {
      key: "_output_shapes"
      value {
        list {
          shape {
            dim {
              size: -1
            }
          }
        }
      }
    }
    attr {
      key: "dtype"
      value {
        type: DT_INT32
      }
    }
    attr {
      key: "shape"
      value {
        shape {
          dim {
            size: -1
          }
        }
      }
    }
  }
  node {
    name: "Sex"
    op: "Placeholder"
    attr {
      key: "_output_shapes"
      value {
        list {
          shape {
            dim {
              size: -1
            }
          }
        }
      }
    }
    attr {
      key: "dtype"
      value {
        type: DT_INT32
      }
    }
    attr {
      key: "shape"
      value {
        shape {
          dim {
            size: -1
          }
        }
      }
    }
  }
  node {
    name: "Chol"
    op: "Placeholder"
    attr {
      key: "_output_shapes"
      value {
        list {
          shape {
            dim {
              size: -1
            }
          }
        }
      }
    }
    attr {
      key: "dtype"
      value {
        type: DT_INT32
      }
    }
    attr {
      key: "shape"
      value {
        shape {
          dim {
            size: -1
          }
        }
      }
    }
  }
  node {
    name: "Fbs"
    op: "Placeholder"
    attr {
      key: "_output_shapes"
      value {
        list {
          shape {
            dim {
              size: -1
            }
          }
        }
      }
    }
    attr {
      key: "dtype"
      value {
        type: DT_INT32
      }
    }
    attr {
      key: "shape"
      value {
        shape {
          dim {
            size: -1
          }
        }
      }
    }
  }
  node {
    name: "Oldpeak"
    op: "Placeholder"
    attr {
      key: "_output_shapes"
      value {
        list {
          shape {
            dim {
              size: -1
            }
          }
        }
      }
    }
    attr {
      key: "dtype"
      value {
        type: DT_INT32
      }
    }
    attr {
      key: "shape"
      value {
        shape {
          dim {
            size: -1
          }
        }
      }
    }
  }
  node {
    name: "Slope"
    op: "Placeholder"
    attr {
      key: "_output_shapes"
      value {
        list {
          shape {
            dim {
              size: -1
            }
          }
        }
      }
    }
    attr {
      key: "dtype"
      value {
        type: DT_INT32
      }
    }
    attr {
      key: "shape"
      value {
        shape {
          dim {
            size: -1
          }
        }
      }
    }
  }
  node {
    name: "Ca"
    op: "Placeholder"
    attr {
      key: "_output_shapes"
      value {
        list {
          shape {
            dim {
              size: -1
            }
          }
        }
      }
    }
    attr {
      key: "dtype"
      value {
        type: DT_INT32
      }
    }
    attr {
      key: "shape"
      value {
        shape {
          dim {
            size: -1
          }
        }
      }
    }
  }
  node {
    name: "Thal"
    op: "Placeholder"
    attr {
      key: "_output_shapes"
      value {
        list {
          shape {
            dim {
              size: -1
            }
          }
        }
      }
    }
    attr {
      key: "dtype"
      value {
        type: DT_STRING
      }
    }
    attr {
      key: "shape"
      value {
        shape {
          dim {
            size: -1
          }
        }
      }
    }
  }
  node {
    name: "Age_1"
    op: "Placeholder"
    attr {
      key: "_output_shapes"
      value {
        list {
          shape {
            dim {
              size: -1
            }
          }
        }
      }
    }
    attr {
      key: "dtype"
      value {
        type: DT_INT32
      }
    }
    attr {
      key: "shape"
      value {
        shape {
          dim {
            size: -1
          }
        }
      }
    }
  }
  node {
    name: "Sex_1"
    op: "Placeholder"
    attr {
      key: "_output_shapes"
      value {
        list {
          shape {
            dim {
              size: -1
            }
          }
        }
      }
    }
    attr {
      key: "dtype"
      value {
        type: DT_INT32
      }
    }
    attr {
      key: "shape"
      value {
        shape {
          dim {
            size: -1
          }
        }
      }
    }
  }
  node {
    name: "Chol_1"
    op: "Placeholder"
    attr {
      key: "_output_shapes"
      value {
        list {
          shape {
            dim {
              size: -1
            }
          }
        }
      }
    }
    attr {
      key: "dtype"
      value {
        type: DT_INT32
      }
    }
    attr {
      key: "shape"
      value {
        shape {
          dim {
            size: -1
          }
        }
      }
    }
  }
  node {
    name: "Fbs_1"
    op: "Placeholder"
    attr {
      key: "_output_shapes"
      value {
        list {
          shape {
            dim {
              size: -1
            }
          }
        }
      }
    }
    attr {
      key: "dtype"
      value {
        type: DT_INT32
      }
    }
    attr {
      key: "shape"
      value {
        shape {
          dim {
            size: -1
          }
        }
      }
    }
  }
  node {
    name: "Oldpeak_1"
    op: "Placeholder"
    attr {
      key: "_output_shapes"
      value {
        list {
          shape {
            dim {
              size: -1
            }
          }
        }
      }
    }
    attr {
      key: "dtype"
      value {
        type: DT_INT32
      }
    }
    attr {
      key: "shape"
      value {
        shape {
          dim {
            size: -1
          }
        }
      }
    }
  }
  node {
    name: "Slope_1"
    op: "Placeholder"
    attr {
      key: "_output_shapes"
      value {
        list {
          shape {
            dim {
              size: -1
            }
          }
        }
      }
    }
    attr {
      key: "dtype"
      value {
        type: DT_INT32
      }
    }
    attr {
      key: "shape"
      value {
        shape {
          dim {
            size: -1
          }
        }
      }
    }
  }
  node {
    name: "Ca_1"
    op: "Placeholder"
    attr {
      key: "_output_shapes"
      value {
        list {
          shape {
            dim {
              size: -1
            }
          }
        }
      }
    }
    attr {
      key: "dtype"
      value {
        type: DT_INT32
      }
    }
    attr {
      key: "shape"
      value {
        shape {
          dim {
            size: -1
          }
        }
      }
    }
  }
  node {
    name: "Thal_1"
    op: "Placeholder"
    attr {
      key: "_output_shapes"
      value {
        list {
          shape {
            dim {
              size: -1
            }
          }
        }
      }
    }
    attr {
      key: "dtype"
      value {
        type: DT_STRING
      }
    }
    attr {
      key: "shape"
      value {
        shape {
          dim {
            size: -1
          }
        }
      }
    }
  }
  node {
    name: "dnn/input_from_feature_columns/input_layer/Thal_embedding/embedding_weights/part_0/Initializer/truncated_normal/shape"
    op: "Const"
    attr {
      key: "_class"
      value {
        list {
          s: "loc:@dnn/input_from_feature_columns/input_layer/Thal_embedding/embedding_weights/part_0"
        }
      }
    }
    attr {
      key: "_output_shapes"
      value {
        list {
          shape {
            dim {
              size: 2
            }
          }
        }
      }
    }
    attr {
      key: "dtype"
      value {
        type: DT_INT32
      }
    }
    attr {
      key: "value"
      value {
        tensor {
          dtype: DT_INT32
          tensor_shape {
            dim {
              size: 2
            }
          }
          tensor_content: "\003\000\000\000\010\000\000\000"
        }
      }
    }
  }
  node {
    name: "dnn/input_from_feature_columns/input_layer/Thal_embedding/embedding_weights/part_0/Initializer/truncated_normal/mean"
    op: "Const"
    attr {
      key: "_class"
      value {
        list {
          s: "loc:@dnn/input_from_feature_columns/input_layer/Thal_embedding/embedding_weights/part_0"
        }
      }
    }
    attr {
      key: "_output_shapes"
      value {
        list {
          shape {
          }
        }
      }
    }
    attr {
      key: "dtype"
      value {
        type: DT_FLOAT
      }
    }
    attr {
      key: "value"
      value {
        tensor {
          dtype: DT_FLOAT
          tensor_shape {
          }
          float_val: 0.0
        }
      }
    }
  }
  node {
    name: "dnn/input_from_feature_columns/input_layer/Thal_embedding/embedding_weights/part_0/Initializer/truncated_normal/stddev"
    op: "Const"
    attr {
      key: "_class"
      value {
        list {
          s: "loc:@dnn/input_from_feature_columns/input_layer/Thal_embedding/embedding_weights/part_0"
        }
      }
    }
    attr {
      key: "_output_shapes"
      value {
        list {
          shape {
          }
        }
      }
    }
    attr {
      key: "dtype"
      value {
        type: DT_FLOAT
      }
    }
    attr {
      key: "value"
      value {
        tensor {
          dtype: DT_FLOAT
          tensor_shape {
          }
          float_val: 0.3535533845424652
        }
      }
    }
  }
  node {
    name: "dnn/input_from_feature_columns/input_layer/Thal_embedding/embedding_weights/part_0/Initializer/truncated_normal/TruncatedNormal"
    op: "TruncatedNormal"
    input: "dnn/input_from_feature_columns/input_layer/Thal_embedding/embedding_weights/part_0/Initializer/truncated_normal/shape"
    attr {
      key: "T"
      value {
        type: DT_INT32
      }
    }
    attr {
      key: "_class"
      value {
        list {
          s: "loc:@dnn/input_from_feature_columns/input_layer/Thal_embedding/embedding_weights/part_0"
        }
      }
    }
    attr {
      key: "_output_shapes"
      value {
        list {
          shape {
            dim {
              size: 3
            }
            dim {
              size: 8
            }
          }
        }
      }
    }
    attr {
      key: "dtype"
      value {
        type: DT_FLOAT
      }
    }
    attr {
      key: "seed"
      value {
        i: 0
      }
    }
    attr {
      key: "seed2"
      value {
        i: 0
      }
    }
  }
  node {
    name: "dnn/input_from_feature_columns/input_layer/Thal_embedding/embedding_weights/part_0/Initializer/truncated_normal/mul"
    op: "Mul"
    input: "dnn/input_from_feature_columns/input_layer/Thal_embedding/embedding_weights/part_0/Initializer/truncated_normal/TruncatedNormal"
    input: "dnn/input_from_feature_columns/input_layer/Thal_embedding/embedding_weights/part_0/Initializer/truncated_normal/stddev"
    attr {
      key: "T"
      value {
        type: DT_FLOAT
      }
    }
    attr {
      key: "_class"
      value {
        list {
          s: "loc:@dnn/input_from_feature_columns/input_layer/Thal_embedding/embedding_weights/part_0"
        }
      }
    }
    attr {
      key: "_output_shapes"
      value {
        list {
          shape {
            dim {
              size: 3
            }
            dim {
              size: 8
            }
          }
        }
      }
    }
  }
  node {
    name: "dnn/input_from_feature_columns/input_layer/Thal_embedding/embedding_weights/part_0/Initializer/truncated_normal"
    op: "Add"
    input: "dnn/input_from_feature_columns/input_layer/Thal_embedding/embedding_weights/part_0/Initializer/truncated_normal/mul"
    input: "dnn/input_from_feature_columns/input_layer/Thal_embedding/embedding_weights/part_0/Initializer/truncated_normal/mean"
    attr {
      key: "T"
      value {
        type: DT_FLOAT
      }
    }
    attr {
      key: "_class"
      value {
        list {
          s: "loc:@dnn/input_from_feature_columns/input_layer/Thal_embedding/embedding_weights/part_0"
        }
      }
    }
    attr {
      key: "_output_shapes"
      value {
        list {
          shape {
            dim {
              size: 3
            }
            dim {
              size: 8
            }
          }
        }
      }
    }
  }
  node {
    name: "dnn/input_from_feature_columns/input_layer/Thal_embedding/embedding_weights/part_0"
    op: "VarHandleOp"
    attr {
      key: "_class"
      value {
        list {
          s: "loc:@dnn/input_from_feature_columns/input_layer/Thal_embedding/embedding_weights/part_0"
        }
      }
    }
    attr {
      key: "_output_shapes"
      value {
        list {
          shape {
          }
        }
      }
    }
    attr {
      key: "container"
      value {
        s: ""
      }
    }
    attr {
      key: "dtype"
      value {
        type: DT_FLOAT
      }
    }
    attr {
      key: "shape"
      value {
        shape {
          dim {
            size: 3
          }
          dim {
            size: 8
          }
        }
      }
    }
    attr {
      key: "shared_name"
      value {
        s: "dnn/input_from_feature_columns/input_layer/Thal_embedding/embedding_weights/part_0"
      }
    }
  }
  node {
    name: "dnn/input_from_feature_columns/input_layer/Thal_embedding/embedding_weights/part_0/IsInitialized/VarIsInitializedOp"
    op: "VarIsInitializedOp"
    input: "dnn/input_from_feature_columns/input_layer/Thal_embedding/embedding_weights/part_0"
    attr {
      key: "_output_shapes"
      value {
        list {
          shape {
          }
        }
      }
    }
  }
  node {
    name: "dnn/input_from_feature_columns/input_layer/Thal_embedding/embedding_weights/part_0/Assign"
    op: "AssignVariableOp"
    input: "dnn/input_from_feature_columns/input_layer/Thal_embedding/embedding_weights/part_0"
    input: "dnn/input_from_feature_columns/input_layer/Thal_embedding/embedding_weights/part_0/Initializer/truncated_normal"
    attr {
      key: "_class"
      value {
        list {
          s: "loc:@dnn/input_from_feature_columns/input_layer/Thal_embedding/embedding_weights/part_0"
        }
      }
    }
    attr {
      key: "dtype"
      value {
        type: DT_FLOAT
      }
    }
  }
  node {
    name: "dnn/input_from_feature_columns/input_layer/Thal_embedding/embedding_weights/part_0/Read/ReadVariableOp"
    op: "ReadVariableOp"
    input: "dnn/input_from_feature_columns/input_layer/Thal_embedding/embedding_weights/part_0"
    attr {
      key: "_class"
      value {
        list {
          s: "loc:@dnn/input_from_feature_columns/input_layer/Thal_embedding/embedding_weights/part_0"
        }
      }
    }
    attr {
      key: "_output_shapes"
      value {
        list {
          shape {
            dim {
              size: 3
            }
            dim {
              size: 8
            }
          }
        }
      }
    }
    attr {
      key: "dtype"
      value {
        type: DT_FLOAT
      }
    }
  }
  node {
    name: "dnn/input_from_feature_columns/input_layer/Age/ExpandDims/dim"
    op: "Const"
    attr {
      key: "_output_shapes"
      value {
        list {
          shape {
          }
        }
      }
    }
    attr {
      key: "dtype"
      value {
        type: DT_INT32
      }
    }
    attr {
      key: "value"
      value {
        tensor {
          dtype: DT_INT32
          tensor_shape {
          }
          int_val: -1
        }
      }
    }
  }
  node {
    name: "dnn/input_from_feature_columns/input_layer/Age/ExpandDims"
    op: "ExpandDims"
    input: "Age_1"
    input: "dnn/input_from_feature_columns/input_layer/Age/ExpandDims/dim"
    attr {
      key: "T"
      value {
        type: DT_INT32
      }
    }
    attr {
      key: "Tdim"
      value {
        type: DT_INT32
      }
    }
    attr {
      key: "_output_shapes"
      value {
        list {
          shape {
            dim {
              size: -1
            }
            dim {
              size: 1
            }
          }
        }
      }
    }
  }
  node {
    name: "dnn/input_from_feature_columns/input_layer/Age/Cast"
    op: "Cast"
    input: "dnn/input_from_feature_columns/input_layer/Age/ExpandDims"
    attr {
      key: "DstT"
      value {
        type: DT_FLOAT
      }
    }
    attr {
      key: "SrcT"
      value {
        type: DT_INT32
      }
    }
    attr {
      key: "Truncate"
      value {
        b: false
      }
    }
    attr {
      key: "_output_shapes"
      value {
        list {
          shape {
            dim {
              size: -1
            }
            dim {
              size: 1
            }
          }
        }
      }
    }
  }
  node {
    name: "dnn/input_from_feature_columns/input_layer/Age/Shape"
    op: "Shape"
    input: "dnn/input_from_feature_columns/input_layer/Age/Cast"
    attr {
      key: "T"
      value {
        type: DT_FLOAT
      }
    }
    attr {
      key: "_output_shapes"
      value {
        list {
          shape {
            dim {
              size: 2
            }
          }
        }
      }
    }
    attr {
      key: "out_type"
      value {
        type: DT_INT32
      }
    }
  }
  node {
    name: "dnn/input_from_feature_columns/input_layer/Age/strided_slice/stack"
    op: "Const"
    attr {
      key: "_output_shapes"
      value {
        list {
          shape {
            dim {
              size: 1
            }
          }
        }
      }
    }
    attr {
      key: "dtype"
      value {
        type: DT_INT32
      }
    }
    attr {
      key: "value"
      value {
        tensor {
          dtype: DT_INT32
          tensor_shape {
            dim {
              size: 1
            }
          }
          int_val: 0
        }
      }
    }
  }
  node {
    name: "dnn/input_from_feature_columns/input_layer/Age/strided_slice/stack_1"
    op: "Const"
    attr {
      key: "_output_shapes"
      value {
        list {
          shape {
            dim {
              size: 1
            }
          }
        }
      }
    }
    attr {
      key: "dtype"
      value {
        type: DT_INT32
      }
    }
    attr {
      key: "value"
      value {
        tensor {
          dtype: DT_INT32
          tensor_shape {
            dim {
              size: 1
            }
          }
          int_val: 1
        }
      }
    }
  }
  node {
    name: "dnn/input_from_feature_columns/input_layer/Age/strided_slice/stack_2"
    op: "Const"
    attr {
      key: "_output_shapes"
      value {
        list {
          shape {
            dim {
              size: 1
            }
          }
        }
      }
    }
    attr {
      key: "dtype"
      value {
        type: DT_INT32
      }
    }
    attr {
      key: "value"
      value {
        tensor {
          dtype: DT_INT32
          tensor_shape {
            dim {
              size: 1
            }
          }
          int_val: 1
        }
      }
    }
  }
  node {
    name: "dnn/input_from_feature_columns/input_layer/Age/strided_slice"
    op: "StridedSlice"
    input: "dnn/input_from_feature_columns/input_layer/Age/Shape"
    input: "dnn/input_from_feature_columns/input_layer/Age/strided_slice/stack"
    input: "dnn/input_from_feature_columns/input_layer/Age/strided_slice/stack_1"
    input: "dnn/input_from_feature_columns/input_layer/Age/strided_slice/stack_2"
    attr {
      key: "Index"
      value {
        type: DT_INT32
      }
    }
    attr {
      key: "T"
      value {
        type: DT_INT32
      }
    }
    attr {
      key: "_output_shapes"
      value {
        list {
          shape {
          }
        }
      }
    }
    attr {
      key: "begin_mask"
      value {
        i: 0
      }
    }
    attr {
      key: "ellipsis_mask"
      value {
        i: 0
      }
    }
    attr {
      key: "end_mask"
      value {
        i: 0
      }
    }
    attr {
      key: "new_axis_mask"
      value {
        i: 0
      }
    }
    attr {
      key: "shrink_axis_mask"
      value {
        i: 1
      }
    }
  }
  node {
    name: "dnn/input_from_feature_columns/input_layer/Age/Reshape/shape/1"
    op: "Const"
    attr {
      key: "_output_shapes"
      value {
        list {
          shape {
          }
        }
      }
    }
    attr {
      key: "dtype"
      value {
        type: DT_INT32
      }
    }
    attr {
      key: "value"
      value {
        tensor {
          dtype: DT_INT32
          tensor_shape {
          }
          int_val: 1
        }
      }
    }
  }
  node {
    name: "dnn/input_from_feature_columns/input_layer/Age/Reshape/shape"
    op: "Pack"
    input: "dnn/input_from_feature_columns/input_layer/Age/strided_slice"
    input: "dnn/input_from_feature_columns/input_layer/Age/Reshape/shape/1"
    attr {
      key: "N"
      value {
        i: 2
      }
    }
    attr {
      key: "T"
      value {
        type: DT_INT32
      }
    }
    attr {
      key: "_output_shapes"
      value {
        list {
          shape {
            dim {
              size: 2
            }
          }
        }
      }
    }
    attr {
      key: "axis"
      value {
        i: 0
      }
    }
  }
  node {
    name: "dnn/input_from_feature_columns/input_layer/Age/Reshape"
    op: "Reshape"
    input: "dnn/input_from_feature_columns/input_layer/Age/Cast"
    input: "dnn/input_from_feature_columns/input_layer/Age/Reshape/shape"
    attr {
      key: "T"
      value {
        type: DT_FLOAT
      }
    }
    attr {
      key: "Tshape"
      value {
        type: DT_INT32
      }
    }
    attr {
      key: "_output_shapes"
      value {
        list {
          shape {
            dim {
              size: -1
            }
            dim {
              size: 1
            }
          }
        }
      }
    }
  }
  node {
    name: "dnn/input_from_feature_columns/input_layer/Age_bucketized/Bucketize"
    op: "Bucketize"
    input: "dnn/input_from_feature_columns/input_layer/Age/Cast"
    attr {
      key: "T"
      value {
        type: DT_FLOAT
      }
    }
    attr {
      key: "_output_shapes"
      value {
        list {
          shape {
            dim {
              size: -1
            }
            dim {
              size: 1
            }
          }
        }
      }
    }
    attr {
      key: "boundaries"
      value {
        list {
          f: 18.0
          f: 25.0
          f: 30.0
          f: 35.0
          f: 40.0
          f: 45.0
          f: 50.0
          f: 55.0
          f: 60.0
          f: 65.0
        }
      }
    }
  }
  node {
    name: "dnn/input_from_feature_columns/input_layer/Age_bucketized/Cast"
    op: "Cast"
    input: "dnn/input_from_feature_columns/input_layer/Age_bucketized/Bucketize"
    attr {
      key: "DstT"
      value {
        type: DT_INT64
      }
    }
    attr {
      key: "SrcT"
      value {
        type: DT_INT32
      }
    }
    attr {
      key: "Truncate"
      value {
        b: false
      }
    }
    attr {
      key: "_output_shapes"
      value {
        list {
          shape {
            dim {
              size: -1
            }
            dim {
              size: 1
            }
          }
        }
      }
    }
  }
  node {
    name: "dnn/input_from_feature_columns/input_layer/Age_bucketized/one_hot/Const"
    op: "Const"
    attr {
      key: "_output_shapes"
      value {
        list {
          shape {
          }
        }
      }
    }
    attr {
      key: "dtype"
      value {
        type: DT_FLOAT
      }
    }
    attr {
      key: "value"
      value {
        tensor {
          dtype: DT_FLOAT
          tensor_shape {
          }
          float_val: 1.0
        }
      }
    }
  }
  node {
    name: "dnn/input_from_feature_columns/input_layer/Age_bucketized/one_hot/Const_1"
    op: "Const"
    attr {
      key: "_output_shapes"
      value {
        list {
          shape {
          }
        }
      }
    }
    attr {
      key: "dtype"
      value {
        type: DT_FLOAT
      }
    }
    attr {
      key: "value"
      value {
        tensor {
          dtype: DT_FLOAT
          tensor_shape {
          }
          float_val: 0.0
        }
      }
    }
  }
  node {
    name: "dnn/input_from_feature_columns/input_layer/Age_bucketized/one_hot/depth"
    op: "Const"
    attr {
      key: "_output_shapes"
      value {
        list {
          shape {
          }
        }
      }
    }
    attr {
      key: "dtype"
      value {
        type: DT_INT32
      }
    }
    attr {
      key: "value"
      value {
        tensor {
          dtype: DT_INT32
          tensor_shape {
          }
          int_val: 11
        }
      }
    }
  }
  node {
    name: "dnn/input_from_feature_columns/input_layer/Age_bucketized/one_hot/on_value"
    op: "Const"
    attr {
      key: "_output_shapes"
      value {
        list {
          shape {
          }
        }
      }
    }
    attr {
      key: "dtype"
      value {
        type: DT_FLOAT
      }
    }
    attr {
      key: "value"
      value {
        tensor {
          dtype: DT_FLOAT
          tensor_shape {
          }
          float_val: 1.0
        }
      }
    }
  }
  node {
    name: "dnn/input_from_feature_columns/input_layer/Age_bucketized/one_hot/off_value"
    op: "Const"
    attr {
      key: "_output_shapes"
      value {
        list {
          shape {
          }
        }
      }
    }
    attr {
      key: "dtype"
      value {
        type: DT_FLOAT
      }
    }
    attr {
      key: "value"
      value {
        tensor {
          dtype: DT_FLOAT
          tensor_shape {
          }
          float_val: 0.0
        }
      }
    }
  }
  node {
    name: "dnn/input_from_feature_columns/input_layer/Age_bucketized/one_hot"
    op: "OneHot"
    input: "dnn/input_from_feature_columns/input_layer/Age_bucketized/Cast"
    input: "dnn/input_from_feature_columns/input_layer/Age_bucketized/one_hot/depth"
    input: "dnn/input_from_feature_columns/input_layer/Age_bucketized/one_hot/on_value"
    input: "dnn/input_from_feature_columns/input_layer/Age_bucketized/one_hot/off_value"
    attr {
      key: "T"
      value {
        type: DT_FLOAT
      }
    }
    attr {
      key: "TI"
      value {
        type: DT_INT64
      }
    }
    attr {
      key: "_output_shapes"
      value {
        list {
          shape {
            dim {
              size: -1
            }
            dim {
              size: 1
            }
            dim {
              size: 11
            }
          }
        }
      }
    }
    attr {
      key: "axis"
      value {
        i: -1
      }
    }
  }
  node {
    name: "dnn/input_from_feature_columns/input_layer/Age_bucketized/Shape"
    op: "Shape"
    input: "dnn/input_from_feature_columns/input_layer/Age_bucketized/one_hot"
    attr {
      key: "T"
      value {
        type: DT_FLOAT
      }
    }
    attr {
      key: "_output_shapes"
      value {
        list {
          shape {
            dim {
              size: 3
            }
          }
        }
      }
    }
    attr {
      key: "out_type"
      value {
        type: DT_INT32
      }
    }
  }
  node {
    name: "dnn/input_from_feature_columns/input_layer/Age_bucketized/strided_slice/stack"
    op: "Const"
    attr {
      key: "_output_shapes"
      value {
        list {
          shape {
            dim {
              size: 1
            }
          }
        }
      }
    }
    attr {
      key: "dtype"
      value {
        type: DT_INT32
      }
    }
    attr {
      key: "value"
      value {
        tensor {
          dtype: DT_INT32
          tensor_shape {
            dim {
              size: 1
            }
          }
          int_val: 0
        }
      }
    }
  }
  node {
    name: "dnn/input_from_feature_columns/input_layer/Age_bucketized/strided_slice/stack_1"
    op: "Const"
    attr {
      key: "_output_shapes"
      value {
        list {
          shape {
            dim {
              size: 1
            }
          }
        }
      }
    }
    attr {
      key: "dtype"
      value {
        type: DT_INT32
      }
    }
    attr {
      key: "value"
      value {
        tensor {
          dtype: DT_INT32
          tensor_shape {
            dim {
              size: 1
            }
          }
          int_val: 1
        }
      }
    }
  }
  node {
    name: "dnn/input_from_feature_columns/input_layer/Age_bucketized/strided_slice/stack_2"
    op: "Const"
    attr {
      key: "_output_shapes"
      value {
        list {
          shape {
            dim {
              size: 1
            }
          }
        }
      }
    }
    attr {
      key: "dtype"
      value {
        type: DT_INT32
      }
    }
    attr {
      key: "value"
      value {
        tensor {
          dtype: DT_INT32
          tensor_shape {
            dim {
              size: 1
            }
          }
          int_val: 1
        }
      }
    }
  }
  node {
    name: "dnn/input_from_feature_columns/input_layer/Age_bucketized/strided_slice"
    op: "StridedSlice"
    input: "dnn/input_from_feature_columns/input_layer/Age_bucketized/Shape"
    input: "dnn/input_from_feature_columns/input_layer/Age_bucketized/strided_slice/stack"
    input: "dnn/input_from_feature_columns/input_layer/Age_bucketized/strided_slice/stack_1"
    input: "dnn/input_from_feature_columns/input_layer/Age_bucketized/strided_slice/stack_2"
    attr {
      key: "Index"
      value {
        type: DT_INT32
      }
    }
    attr {
      key: "T"
      value {
        type: DT_INT32
      }
    }
    attr {
      key: "_output_shapes"
      value {
        list {
          shape {
          }
        }
      }
    }
    attr {
      key: "begin_mask"
      value {
        i: 0
      }
    }
    attr {
      key: "ellipsis_mask"
      value {
        i: 0
      }
    }
    attr {
      key: "end_mask"
      value {
        i: 0
      }
    }
    attr {
      key: "new_axis_mask"
      value {
        i: 0
      }
    }
    attr {
      key: "shrink_axis_mask"
      value {
        i: 1
      }
    }
  }
  node {
    name: "dnn/input_from_feature_columns/input_layer/Age_bucketized/Reshape/shape/1"
    op: "Const"
    attr {
      key: "_output_shapes"
      value {
        list {
          shape {
          }
        }
      }
    }
    attr {
      key: "dtype"
      value {
        type: DT_INT32
      }
    }
    attr {
      key: "value"
      value {
        tensor {
          dtype: DT_INT32
          tensor_shape {
          }
          int_val: 11
        }
      }
    }
  }
  node {
    name: "dnn/input_from_feature_columns/input_layer/Age_bucketized/Reshape/shape"
    op: "Pack"
    input: "dnn/input_from_feature_columns/input_layer/Age_bucketized/strided_slice"
    input: "dnn/input_from_feature_columns/input_layer/Age_bucketized/Reshape/shape/1"
    attr {
      key: "N"
      value {
        i: 2
      }
    }
    attr {
      key: "T"
      value {
        type: DT_INT32
      }
    }
    attr {
      key: "_output_shapes"
      value {
        list {
          shape {
            dim {
              size: 2
            }
          }
        }
      }
    }
    attr {
      key: "axis"
      value {
        i: 0
      }
    }
  }
  node {
    name: "dnn/input_from_feature_columns/input_layer/Age_bucketized/Reshape"
    op: "Reshape"
    input: "dnn/input_from_feature_columns/input_layer/Age_bucketized/one_hot"
    input: "dnn/input_from_feature_columns/input_layer/Age_bucketized/Reshape/shape"
    attr {
      key: "T"
      value {
        type: DT_FLOAT
      }
    }
    attr {
      key: "Tshape"
      value {
        type: DT_INT32
      }
    }
    attr {
      key: "_output_shapes"
      value {
        list {
          shape {
            dim {
              size: -1
            }
            dim {
              size: 11
            }
          }
        }
      }
    }
  }
  node {
    name: "dnn/input_from_feature_columns/input_layer/Ca/ExpandDims/dim"
    op: "Const"
    attr {
      key: "_output_shapes"
      value {
        list {
          shape {
          }
        }
      }
    }
    attr {
      key: "dtype"
      value {
        type: DT_INT32
      }
    }
    attr {
      key: "value"
      value {
        tensor {
          dtype: DT_INT32
          tensor_shape {
          }
          int_val: -1
        }
      }
    }
  }
  node {
    name: "dnn/input_from_feature_columns/input_layer/Ca/ExpandDims"
    op: "ExpandDims"
    input: "Ca_1"
    input: "dnn/input_from_feature_columns/input_layer/Ca/ExpandDims/dim"
    attr {
      key: "T"
      value {
        type: DT_INT32
      }
    }
    attr {
      key: "Tdim"
      value {
        type: DT_INT32
      }
    }
    attr {
      key: "_output_shapes"
      value {
        list {
          shape {
            dim {
              size: -1
            }
            dim {
              size: 1
            }
          }
        }
      }
    }
  }
  node {
    name: "dnn/input_from_feature_columns/input_layer/Ca/Cast"
    op: "Cast"
    input: "dnn/input_from_feature_columns/input_layer/Ca/ExpandDims"
    attr {
      key: "DstT"
      value {
        type: DT_FLOAT
      }
    }
    attr {
      key: "SrcT"
      value {
        type: DT_INT32
      }
    }
    attr {
      key: "Truncate"
      value {
        b: false
      }
    }
    attr {
      key: "_output_shapes"
      value {
        list {
          shape {
            dim {
              size: -1
            }
            dim {
              size: 1
            }
          }
        }
      }
    }
  }
  node {
    name: "dnn/input_from_feature_columns/input_layer/Ca/Shape"
    op: "Shape"
    input: "dnn/input_from_feature_columns/input_layer/Ca/Cast"
    attr {
      key: "T"
      value {
        type: DT_FLOAT
      }
    }
    attr {
      key: "_output_shapes"
      value {
        list {
          shape {
            dim {
              size: 2
            }
          }
        }
      }
    }
    attr {
      key: "out_type"
      value {
        type: DT_INT32
      }
    }
  }
  node {
    name: "dnn/input_from_feature_columns/input_layer/Ca/strided_slice/stack"
    op: "Const"
    attr {
      key: "_output_shapes"
      value {
        list {
          shape {
            dim {
              size: 1
            }
          }
        }
      }
    }
    attr {
      key: "dtype"
      value {
        type: DT_INT32
      }
    }
    attr {
      key: "value"
      value {
        tensor {
          dtype: DT_INT32
          tensor_shape {
            dim {
              size: 1
            }
          }
          int_val: 0
        }
      }
    }
  }
  node {
    name: "dnn/input_from_feature_columns/input_layer/Ca/strided_slice/stack_1"
    op: "Const"
    attr {
      key: "_output_shapes"
      value {
        list {
          shape {
            dim {
              size: 1
            }
          }
        }
      }
    }
    attr {
      key: "dtype"
      value {
        type: DT_INT32
      }
    }
    attr {
      key: "value"
      value {
        tensor {
          dtype: DT_INT32
          tensor_shape {
            dim {
              size: 1
            }
          }
          int_val: 1
        }
      }
    }
  }
  node {
    name: "dnn/input_from_feature_columns/input_layer/Ca/strided_slice/stack_2"
    op: "Const"
    attr {
      key: "_output_shapes"
      value {
        list {
          shape {
            dim {
              size: 1
            }
          }
        }
      }
    }
    attr {
      key: "dtype"
      value {
        type: DT_INT32
      }
    }
    attr {
      key: "value"
      value {
        tensor {
          dtype: DT_INT32
          tensor_shape {
            dim {
              size: 1
            }
          }
          int_val: 1
        }
      }
    }
  }
  node {
    name: "dnn/input_from_feature_columns/input_layer/Ca/strided_slice"
    op: "StridedSlice"
    input: "dnn/input_from_feature_columns/input_layer/Ca/Shape"
    input: "dnn/input_from_feature_columns/input_layer/Ca/strided_slice/stack"
    input: "dnn/input_from_feature_columns/input_layer/Ca/strided_slice/stack_1"
    input: "dnn/input_from_feature_columns/input_layer/Ca/strided_slice/stack_2"
    attr {
      key: "Index"
      value {
        type: DT_INT32
      }
    }
    attr {
      key: "T"
      value {
        type: DT_INT32
      }
    }
    attr {
      key: "_output_shapes"
      value {
        list {
          shape {
          }
        }
      }
    }
    attr {
      key: "begin_mask"
      value {
        i: 0
      }
    }
    attr {
      key: "ellipsis_mask"
      value {
        i: 0
      }
    }
    attr {
      key: "end_mask"
      value {
        i: 0
      }
    }
    attr {
      key: "new_axis_mask"
      value {
        i: 0
      }
    }
    attr {
      key: "shrink_axis_mask"
      value {
        i: 1
      }
    }
  }
  node {
    name: "dnn/input_from_feature_columns/input_layer/Ca/Reshape/shape/1"
    op: "Const"
    attr {
      key: "_output_shapes"
      value {
        list {
          shape {
          }
        }
      }
    }
    attr {
      key: "dtype"
      value {
        type: DT_INT32
      }
    }
    attr {
      key: "value"
      value {
        tensor {
          dtype: DT_INT32
          tensor_shape {
          }
          int_val: 1
        }
      }
    }
  }
  node {
    name: "dnn/input_from_feature_columns/input_layer/Ca/Reshape/shape"
    op: "Pack"
    input: "dnn/input_from_feature_columns/input_layer/Ca/strided_slice"
    input: "dnn/input_from_feature_columns/input_layer/Ca/Reshape/shape/1"
    attr {
      key: "N"
      value {
        i: 2
      }
    }
    attr {
      key: "T"
      value {
        type: DT_INT32
      }
    }
    attr {
      key: "_output_shapes"
      value {
        list {
          shape {
            dim {
              size: 2
            }
          }
        }
      }
    }
    attr {
      key: "axis"
      value {
        i: 0
      }
    }
  }
  node {
    name: "dnn/input_from_feature_columns/input_layer/Ca/Reshape"
    op: "Reshape"
    input: "dnn/input_from_feature_columns/input_layer/Ca/Cast"
    input: "dnn/input_from_feature_columns/input_layer/Ca/Reshape/shape"
    attr {
      key: "T"
      value {
        type: DT_FLOAT
      }
    }
    attr {
      key: "Tshape"
      value {
        type: DT_INT32
      }
    }
    attr {
      key: "_output_shapes"
      value {
        list {
          shape {
            dim {
              size: -1
            }
            dim {
              size: 1
            }
          }
        }
      }
    }
  }
  node {
    name: "dnn/input_from_feature_columns/input_layer/Chol/ExpandDims/dim"
    op: "Const"
    attr {
      key: "_output_shapes"
      value {
        list {
          shape {
          }
        }
      }
    }
    attr {
      key: "dtype"
      value {
        type: DT_INT32
      }
    }
    attr {
      key: "value"
      value {
        tensor {
          dtype: DT_INT32
          tensor_shape {
          }
          int_val: -1
        }
      }
    }
  }
  node {
    name: "dnn/input_from_feature_columns/input_layer/Chol/ExpandDims"
    op: "ExpandDims"
    input: "Chol_1"
    input: "dnn/input_from_feature_columns/input_layer/Chol/ExpandDims/dim"
    attr {
      key: "T"
      value {
        type: DT_INT32
      }
    }
    attr {
      key: "Tdim"
      value {
        type: DT_INT32
      }
    }
    attr {
      key: "_output_shapes"
      value {
        list {
          shape {
            dim {
              size: -1
            }
            dim {
              size: 1
            }
          }
        }
      }
    }
  }
  node {
    name: "dnn/input_from_feature_columns/input_layer/Chol/Cast"
    op: "Cast"
    input: "dnn/input_from_feature_columns/input_layer/Chol/ExpandDims"
    attr {
      key: "DstT"
      value {
        type: DT_FLOAT
      }
    }
    attr {
      key: "SrcT"
      value {
        type: DT_INT32
      }
    }
    attr {
      key: "Truncate"
      value {
        b: false
      }
    }
    attr {
      key: "_output_shapes"
      value {
        list {
          shape {
            dim {
              size: -1
            }
            dim {
              size: 1
            }
          }
        }
      }
    }
  }
  node {
    name: "dnn/input_from_feature_columns/input_layer/Chol/Shape"
    op: "Shape"
    input: "dnn/input_from_feature_columns/input_layer/Chol/Cast"
    attr {
      key: "T"
      value {
        type: DT_FLOAT
      }
    }
    attr {
      key: "_output_shapes"
      value {
        list {
          shape {
            dim {
              size: 2
            }
          }
        }
      }
    }
    attr {
      key: "out_type"
      value {
        type: DT_INT32
      }
    }
  }
  node {
    name: "dnn/input_from_feature_columns/input_layer/Chol/strided_slice/stack"
    op: "Const"
    attr {
      key: "_output_shapes"
      value {
        list {
          shape {
            dim {
              size: 1
            }
          }
        }
      }
    }
    attr {
      key: "dtype"
      value {
        type: DT_INT32
      }
    }
    attr {
      key: "value"
      value {
        tensor {
          dtype: DT_INT32
          tensor_shape {
            dim {
              size: 1
            }
          }
          int_val: 0
        }
      }
    }
  }
  node {
    name: "dnn/input_from_feature_columns/input_layer/Chol/strided_slice/stack_1"
    op: "Const"
    attr {
      key: "_output_shapes"
      value {
        list {
          shape {
            dim {
              size: 1
            }
          }
        }
      }
    }
    attr {
      key: "dtype"
      value {
        type: DT_INT32
      }
    }
    attr {
      key: "value"
      value {
        tensor {
          dtype: DT_INT32
          tensor_shape {
            dim {
              size: 1
            }
          }
          int_val: 1
        }
      }
    }
  }
  node {
    name: "dnn/input_from_feature_columns/input_layer/Chol/strided_slice/stack_2"
    op: "Const"
    attr {
      key: "_output_shapes"
      value {
        list {
          shape {
            dim {
              size: 1
            }
          }
        }
      }
    }
    attr {
      key: "dtype"
      value {
        type: DT_INT32
      }
    }
    attr {
      key: "value"
      value {
        tensor {
          dtype: DT_INT32
          tensor_shape {
            dim {
              size: 1
            }
          }
          int_val: 1
        }
      }
    }
  }
  node {
    name: "dnn/input_from_feature_columns/input_layer/Chol/strided_slice"
    op: "StridedSlice"
    input: "dnn/input_from_feature_columns/input_layer/Chol/Shape"
    input: "dnn/input_from_feature_columns/input_layer/Chol/strided_slice/stack"
    input: "dnn/input_from_feature_columns/input_layer/Chol/strided_slice/stack_1"
    input: "dnn/input_from_feature_columns/input_layer/Chol/strided_slice/stack_2"
    attr {
      key: "Index"
      value {
        type: DT_INT32
      }
    }
    attr {
      key: "T"
      value {
        type: DT_INT32
      }
    }
    attr {
      key: "_output_shapes"
      value {
        list {
          shape {
          }
        }
      }
    }
    attr {
      key: "begin_mask"
      value {
        i: 0
      }
    }
    attr {
      key: "ellipsis_mask"
      value {
        i: 0
      }
    }
    attr {
      key: "end_mask"
      value {
        i: 0
      }
    }
    attr {
      key: "new_axis_mask"
      value {
        i: 0
      }
    }
    attr {
      key: "shrink_axis_mask"
      value {
        i: 1
      }
    }
  }
  node {
    name: "dnn/input_from_feature_columns/input_layer/Chol/Reshape/shape/1"
    op: "Const"
    attr {
      key: "_output_shapes"
      value {
        list {
          shape {
          }
        }
      }
    }
    attr {
      key: "dtype"
      value {
        type: DT_INT32
      }
    }
    attr {
      key: "value"
      value {
        tensor {
          dtype: DT_INT32
          tensor_shape {
          }
          int_val: 1
        }
      }
    }
  }
  node {
    name: "dnn/input_from_feature_columns/input_layer/Chol/Reshape/shape"
    op: "Pack"
    input: "dnn/input_from_feature_columns/input_layer/Chol/strided_slice"
    input: "dnn/input_from_feature_columns/input_layer/Chol/Reshape/shape/1"
    attr {
      key: "N"
      value {
        i: 2
      }
    }
    attr {
      key: "T"
      value {
        type: DT_INT32
      }
    }
    attr {
      key: "_output_shapes"
      value {
        list {
          shape {
            dim {
              size: 2
            }
          }
        }
      }
    }
    attr {
      key: "axis"
      value {
        i: 0
      }
    }
  }
  node {
    name: "dnn/input_from_feature_columns/input_layer/Chol/Reshape"
    op: "Reshape"
    input: "dnn/input_from_feature_columns/input_layer/Chol/Cast"
    input: "dnn/input_from_feature_columns/input_layer/Chol/Reshape/shape"
    attr {
      key: "T"
      value {
        type: DT_FLOAT
      }
    }
    attr {
      key: "Tshape"
      value {
        type: DT_INT32
      }
    }
    attr {
      key: "_output_shapes"
      value {
        list {
          shape {
            dim {
              size: -1
            }
            dim {
              size: 1
            }
          }
        }
      }
    }
  }
  node {
    name: "dnn/input_from_feature_columns/input_layer/Fbs/ExpandDims/dim"
    op: "Const"
    attr {
      key: "_output_shapes"
      value {
        list {
          shape {
          }
        }
      }
    }
    attr {
      key: "dtype"
      value {
        type: DT_INT32
      }
    }
    attr {
      key: "value"
      value {
        tensor {
          dtype: DT_INT32
          tensor_shape {
          }
          int_val: -1
        }
      }
    }
  }
  node {
    name: "dnn/input_from_feature_columns/input_layer/Fbs/ExpandDims"
    op: "ExpandDims"
    input: "Fbs_1"
    input: "dnn/input_from_feature_columns/input_layer/Fbs/ExpandDims/dim"
    attr {
      key: "T"
      value {
        type: DT_INT32
      }
    }
    attr {
      key: "Tdim"
      value {
        type: DT_INT32
      }
    }
    attr {
      key: "_output_shapes"
      value {
        list {
          shape {
            dim {
              size: -1
            }
            dim {
              size: 1
            }
          }
        }
      }
    }
  }
  node {
    name: "dnn/input_from_feature_columns/input_layer/Fbs/Cast"
    op: "Cast"
    input: "dnn/input_from_feature_columns/input_layer/Fbs/ExpandDims"
    attr {
      key: "DstT"
      value {
        type: DT_FLOAT
      }
    }
    attr {
      key: "SrcT"
      value {
        type: DT_INT32
      }
    }
    attr {
      key: "Truncate"
      value {
        b: false
      }
    }
    attr {
      key: "_output_shapes"
      value {
        list {
          shape {
            dim {
              size: -1
            }
            dim {
              size: 1
            }
          }
        }
      }
    }
  }
  node {
    name: "dnn/input_from_feature_columns/input_layer/Fbs/Shape"
    op: "Shape"
    input: "dnn/input_from_feature_columns/input_layer/Fbs/Cast"
    attr {
      key: "T"
      value {
        type: DT_FLOAT
      }
    }
    attr {
      key: "_output_shapes"
      value {
        list {
          shape {
            dim {
              size: 2
            }
          }
        }
      }
    }
    attr {
      key: "out_type"
      value {
        type: DT_INT32
      }
    }
  }
  node {
    name: "dnn/input_from_feature_columns/input_layer/Fbs/strided_slice/stack"
    op: "Const"
    attr {
      key: "_output_shapes"
      value {
        list {
          shape {
            dim {
              size: 1
            }
          }
        }
      }
    }
    attr {
      key: "dtype"
      value {
        type: DT_INT32
      }
    }
    attr {
      key: "value"
      value {
        tensor {
          dtype: DT_INT32
          tensor_shape {
            dim {
              size: 1
            }
          }
          int_val: 0
        }
      }
    }
  }
  node {
    name: "dnn/input_from_feature_columns/input_layer/Fbs/strided_slice/stack_1"
    op: "Const"
    attr {
      key: "_output_shapes"
      value {
        list {
          shape {
            dim {
              size: 1
            }
          }
        }
      }
    }
    attr {
      key: "dtype"
      value {
        type: DT_INT32
      }
    }
    attr {
      key: "value"
      value {
        tensor {
          dtype: DT_INT32
          tensor_shape {
            dim {
              size: 1
            }
          }
          int_val: 1
        }
      }
    }
  }
  node {
    name: "dnn/input_from_feature_columns/input_layer/Fbs/strided_slice/stack_2"
    op: "Const"
    attr {
      key: "_output_shapes"
      value {
        list {
          shape {
            dim {
              size: 1
            }
          }
        }
      }
    }
    attr {
      key: "dtype"
      value {
        type: DT_INT32
      }
    }
    attr {
      key: "value"
      value {
        tensor {
          dtype: DT_INT32
          tensor_shape {
            dim {
              size: 1
            }
          }
          int_val: 1
        }
      }
    }
  }
  node {
    name: "dnn/input_from_feature_columns/input_layer/Fbs/strided_slice"
    op: "StridedSlice"
    input: "dnn/input_from_feature_columns/input_layer/Fbs/Shape"
    input: "dnn/input_from_feature_columns/input_layer/Fbs/strided_slice/stack"
    input: "dnn/input_from_feature_columns/input_layer/Fbs/strided_slice/stack_1"
    input: "dnn/input_from_feature_columns/input_layer/Fbs/strided_slice/stack_2"
    attr {
      key: "Index"
      value {
        type: DT_INT32
      }
    }
    attr {
      key: "T"
      value {
        type: DT_INT32
      }
    }
    attr {
      key: "_output_shapes"
      value {
        list {
          shape {
          }
        }
      }
    }
    attr {
      key: "begin_mask"
      value {
        i: 0
      }
    }
    attr {
      key: "ellipsis_mask"
      value {
        i: 0
      }
    }
    attr {
      key: "end_mask"
      value {
        i: 0
      }
    }
    attr {
      key: "new_axis_mask"
      value {
        i: 0
      }
    }
    attr {
      key: "shrink_axis_mask"
      value {
        i: 1
      }
    }
  }
  node {
    name: "dnn/input_from_feature_columns/input_layer/Fbs/Reshape/shape/1"
    op: "Const"
    attr {
      key: "_output_shapes"
      value {
        list {
          shape {
          }
        }
      }
    }
    attr {
      key: "dtype"
      value {
        type: DT_INT32
      }
    }
    attr {
      key: "value"
      value {
        tensor {
          dtype: DT_INT32
          tensor_shape {
          }
          int_val: 1
        }
      }
    }
  }
  node {
    name: "dnn/input_from_feature_columns/input_layer/Fbs/Reshape/shape"
    op: "Pack"
    input: "dnn/input_from_feature_columns/input_layer/Fbs/strided_slice"
    input: "dnn/input_from_feature_columns/input_layer/Fbs/Reshape/shape/1"
    attr {
      key: "N"
      value {
        i: 2
      }
    }
    attr {
      key: "T"
      value {
        type: DT_INT32
      }
    }
    attr {
      key: "_output_shapes"
      value {
        list {
          shape {
            dim {
              size: 2
            }
          }
        }
      }
    }
    attr {
      key: "axis"
      value {
        i: 0
      }
    }
  }
  node {
    name: "dnn/input_from_feature_columns/input_layer/Fbs/Reshape"
    op: "Reshape"
    input: "dnn/input_from_feature_columns/input_layer/Fbs/Cast"
    input: "dnn/input_from_feature_columns/input_layer/Fbs/Reshape/shape"
    attr {
      key: "T"
      value {
        type: DT_FLOAT
      }
    }
    attr {
      key: "Tshape"
      value {
        type: DT_INT32
      }
    }
    attr {
      key: "_output_shapes"
      value {
        list {
          shape {
            dim {
              size: -1
            }
            dim {
              size: 1
            }
          }
        }
      }
    }
  }
  node {
    name: "dnn/input_from_feature_columns/input_layer/Oldpeak/ExpandDims/dim"
    op: "Const"
    attr {
      key: "_output_shapes"
      value {
        list {
          shape {
          }
        }
      }
    }
    attr {
      key: "dtype"
      value {
        type: DT_INT32
      }
    }
    attr {
      key: "value"
      value {
        tensor {
          dtype: DT_INT32
          tensor_shape {
          }
          int_val: -1
        }
      }
    }
  }
  node {
    name: "dnn/input_from_feature_columns/input_layer/Oldpeak/ExpandDims"
    op: "ExpandDims"
    input: "Oldpeak_1"
    input: "dnn/input_from_feature_columns/input_layer/Oldpeak/ExpandDims/dim"
    attr {
      key: "T"
      value {
        type: DT_INT32
      }
    }
    attr {
      key: "Tdim"
      value {
        type: DT_INT32
      }
    }
    attr {
      key: "_output_shapes"
      value {
        list {
          shape {
            dim {
              size: -1
            }
            dim {
              size: 1
            }
          }
        }
      }
    }
  }
  node {
    name: "dnn/input_from_feature_columns/input_layer/Oldpeak/Cast"
    op: "Cast"
    input: "dnn/input_from_feature_columns/input_layer/Oldpeak/ExpandDims"
    attr {
      key: "DstT"
      value {
        type: DT_FLOAT
      }
    }
    attr {
      key: "SrcT"
      value {
        type: DT_INT32
      }
    }
    attr {
      key: "Truncate"
      value {
        b: false
      }
    }
    attr {
      key: "_output_shapes"
      value {
        list {
          shape {
            dim {
              size: -1
            }
            dim {
              size: 1
            }
          }
        }
      }
    }
  }
  node {
    name: "dnn/input_from_feature_columns/input_layer/Oldpeak/Shape"
    op: "Shape"
    input: "dnn/input_from_feature_columns/input_layer/Oldpeak/Cast"
    attr {
      key: "T"
      value {
        type: DT_FLOAT
      }
    }
    attr {
      key: "_output_shapes"
      value {
        list {
          shape {
            dim {
              size: 2
            }
          }
        }
      }
    }
    attr {
      key: "out_type"
      value {
        type: DT_INT32
      }
    }
  }
  node {
    name: "dnn/input_from_feature_columns/input_layer/Oldpeak/strided_slice/stack"
    op: "Const"
    attr {
      key: "_output_shapes"
      value {
        list {
          shape {
            dim {
              size: 1
            }
          }
        }
      }
    }
    attr {
      key: "dtype"
      value {
        type: DT_INT32
      }
    }
    attr {
      key: "value"
      value {
        tensor {
          dtype: DT_INT32
          tensor_shape {
            dim {
              size: 1
            }
          }
          int_val: 0
        }
      }
    }
  }
  node {
    name: "dnn/input_from_feature_columns/input_layer/Oldpeak/strided_slice/stack_1"
    op: "Const"
    attr {
      key: "_output_shapes"
      value {
        list {
          shape {
            dim {
              size: 1
            }
          }
        }
      }
    }
    attr {
      key: "dtype"
      value {
        type: DT_INT32
      }
    }
    attr {
      key: "value"
      value {
        tensor {
          dtype: DT_INT32
          tensor_shape {
            dim {
              size: 1
            }
          }
          int_val: 1
        }
      }
    }
  }
  node {
    name: "dnn/input_from_feature_columns/input_layer/Oldpeak/strided_slice/stack_2"
    op: "Const"
    attr {
      key: "_output_shapes"
      value {
        list {
          shape {
            dim {
              size: 1
            }
          }
        }
      }
    }
    attr {
      key: "dtype"
      value {
        type: DT_INT32
      }
    }
    attr {
      key: "value"
      value {
        tensor {
          dtype: DT_INT32
          tensor_shape {
            dim {
              size: 1
            }
          }
          int_val: 1
        }
      }
    }
  }
  node {
    name: "dnn/input_from_feature_columns/input_layer/Oldpeak/strided_slice"
    op: "StridedSlice"
    input: "dnn/input_from_feature_columns/input_layer/Oldpeak/Shape"
    input: "dnn/input_from_feature_columns/input_layer/Oldpeak/strided_slice/stack"
    input: "dnn/input_from_feature_columns/input_layer/Oldpeak/strided_slice/stack_1"
    input: "dnn/input_from_feature_columns/input_layer/Oldpeak/strided_slice/stack_2"
    attr {
      key: "Index"
      value {
        type: DT_INT32
      }
    }
    attr {
      key: "T"
      value {
        type: DT_INT32
      }
    }
    attr {
      key: "_output_shapes"
      value {
        list {
          shape {
          }
        }
      }
    }
    attr {
      key: "begin_mask"
      value {
        i: 0
      }
    }
    attr {
      key: "ellipsis_mask"
      value {
        i: 0
      }
    }
    attr {
      key: "end_mask"
      value {
        i: 0
      }
    }
    attr {
      key: "new_axis_mask"
      value {
        i: 0
      }
    }
    attr {
      key: "shrink_axis_mask"
      value {
        i: 1
      }
    }
  }
  node {
    name: "dnn/input_from_feature_columns/input_layer/Oldpeak/Reshape/shape/1"
    op: "Const"
    attr {
      key: "_output_shapes"
      value {
        list {
          shape {
          }
        }
      }
    }
    attr {
      key: "dtype"
      value {
        type: DT_INT32
      }
    }
    attr {
      key: "value"
      value {
        tensor {
          dtype: DT_INT32
          tensor_shape {
          }
          int_val: 1
        }
      }
    }
  }
  node {
    name: "dnn/input_from_feature_columns/input_layer/Oldpeak/Reshape/shape"
    op: "Pack"
    input: "dnn/input_from_feature_columns/input_layer/Oldpeak/strided_slice"
    input: "dnn/input_from_feature_columns/input_layer/Oldpeak/Reshape/shape/1"
    attr {
      key: "N"
      value {
        i: 2
      }
    }
    attr {
      key: "T"
      value {
        type: DT_INT32
      }
    }
    attr {
      key: "_output_shapes"
      value {
        list {
          shape {
            dim {
              size: 2
            }
          }
        }
      }
    }
    attr {
      key: "axis"
      value {
        i: 0
      }
    }
  }
  node {
    name: "dnn/input_from_feature_columns/input_layer/Oldpeak/Reshape"
    op: "Reshape"
    input: "dnn/input_from_feature_columns/input_layer/Oldpeak/Cast"
    input: "dnn/input_from_feature_columns/input_layer/Oldpeak/Reshape/shape"
    attr {
      key: "T"
      value {
        type: DT_FLOAT
      }
    }
    attr {
      key: "Tshape"
      value {
        type: DT_INT32
      }
    }
    attr {
      key: "_output_shapes"
      value {
        list {
          shape {
            dim {
              size: -1
            }
            dim {
              size: 1
            }
          }
        }
      }
    }
  }
  node {
    name: "dnn/input_from_feature_columns/input_layer/Sex/ExpandDims/dim"
    op: "Const"
    attr {
      key: "_output_shapes"
      value {
        list {
          shape {
          }
        }
      }
    }
    attr {
      key: "dtype"
      value {
        type: DT_INT32
      }
    }
    attr {
      key: "value"
      value {
        tensor {
          dtype: DT_INT32
          tensor_shape {
          }
          int_val: -1
        }
      }
    }
  }
  node {
    name: "dnn/input_from_feature_columns/input_layer/Sex/ExpandDims"
    op: "ExpandDims"
    input: "Sex_1"
    input: "dnn/input_from_feature_columns/input_layer/Sex/ExpandDims/dim"
    attr {
      key: "T"
      value {
        type: DT_INT32
      }
    }
    attr {
      key: "Tdim"
      value {
        type: DT_INT32
      }
    }
    attr {
      key: "_output_shapes"
      value {
        list {
          shape {
            dim {
              size: -1
            }
            dim {
              size: 1
            }
          }
        }
      }
    }
  }
  node {
    name: "dnn/input_from_feature_columns/input_layer/Sex/Cast"
    op: "Cast"
    input: "dnn/input_from_feature_columns/input_layer/Sex/ExpandDims"
    attr {
      key: "DstT"
      value {
        type: DT_FLOAT
      }
    }
    attr {
      key: "SrcT"
      value {
        type: DT_INT32
      }
    }
    attr {
      key: "Truncate"
      value {
        b: false
      }
    }
    attr {
      key: "_output_shapes"
      value {
        list {
          shape {
            dim {
              size: -1
            }
            dim {
              size: 1
            }
          }
        }
      }
    }
  }
  node {
    name: "dnn/input_from_feature_columns/input_layer/Sex/Shape"
    op: "Shape"
    input: "dnn/input_from_feature_columns/input_layer/Sex/Cast"
    attr {
      key: "T"
      value {
        type: DT_FLOAT
      }
    }
    attr {
      key: "_output_shapes"
      value {
        list {
          shape {
            dim {
              size: 2
            }
          }
        }
      }
    }
    attr {
      key: "out_type"
      value {
        type: DT_INT32
      }
    }
  }
  node {
    name: "dnn/input_from_feature_columns/input_layer/Sex/strided_slice/stack"
    op: "Const"
    attr {
      key: "_output_shapes"
      value {
        list {
          shape {
            dim {
              size: 1
            }
          }
        }
      }
    }
    attr {
      key: "dtype"
      value {
        type: DT_INT32
      }
    }
    attr {
      key: "value"
      value {
        tensor {
          dtype: DT_INT32
          tensor_shape {
            dim {
              size: 1
            }
          }
          int_val: 0
        }
      }
    }
  }
  node {
    name: "dnn/input_from_feature_columns/input_layer/Sex/strided_slice/stack_1"
    op: "Const"
    attr {
      key: "_output_shapes"
      value {
        list {
          shape {
            dim {
              size: 1
            }
          }
        }
      }
    }
    attr {
      key: "dtype"
      value {
        type: DT_INT32
      }
    }
    attr {
      key: "value"
      value {
        tensor {
          dtype: DT_INT32
          tensor_shape {
            dim {
              size: 1
            }
          }
          int_val: 1
        }
      }
    }
  }
  node {
    name: "dnn/input_from_feature_columns/input_layer/Sex/strided_slice/stack_2"
    op: "Const"
    attr {
      key: "_output_shapes"
      value {
        list {
          shape {
            dim {
              size: 1
            }
          }
        }
      }
    }
    attr {
      key: "dtype"
      value {
        type: DT_INT32
      }
    }
    attr {
      key: "value"
      value {
        tensor {
          dtype: DT_INT32
          tensor_shape {
            dim {
              size: 1
            }
          }
          int_val: 1
        }
      }
    }
  }
  node {
    name: "dnn/input_from_feature_columns/input_layer/Sex/strided_slice"
    op: "StridedSlice"
    input: "dnn/input_from_feature_columns/input_layer/Sex/Shape"
    input: "dnn/input_from_feature_columns/input_layer/Sex/strided_slice/stack"
    input: "dnn/input_from_feature_columns/input_layer/Sex/strided_slice/stack_1"
    input: "dnn/input_from_feature_columns/input_layer/Sex/strided_slice/stack_2"
    attr {
      key: "Index"
      value {
        type: DT_INT32
      }
    }
    attr {
      key: "T"
      value {
        type: DT_INT32
      }
    }
    attr {
      key: "_output_shapes"
      value {
        list {
          shape {
          }
        }
      }
    }
    attr {
      key: "begin_mask"
      value {
        i: 0
      }
    }
    attr {
      key: "ellipsis_mask"
      value {
        i: 0
      }
    }
    attr {
      key: "end_mask"
      value {
        i: 0
      }
    }
    attr {
      key: "new_axis_mask"
      value {
        i: 0
      }
    }
    attr {
      key: "shrink_axis_mask"
      value {
        i: 1
      }
    }
  }
  node {
    name: "dnn/input_from_feature_columns/input_layer/Sex/Reshape/shape/1"
    op: "Const"
    attr {
      key: "_output_shapes"
      value {
        list {
          shape {
          }
        }
      }
    }
    attr {
      key: "dtype"
      value {
        type: DT_INT32
      }
    }
    attr {
      key: "value"
      value {
        tensor {
          dtype: DT_INT32
          tensor_shape {
          }
          int_val: 1
        }
      }
    }
  }
  node {
    name: "dnn/input_from_feature_columns/input_layer/Sex/Reshape/shape"
    op: "Pack"
    input: "dnn/input_from_feature_columns/input_layer/Sex/strided_slice"
    input: "dnn/input_from_feature_columns/input_layer/Sex/Reshape/shape/1"
    attr {
      key: "N"
      value {
        i: 2
      }
    }
    attr {
      key: "T"
      value {
        type: DT_INT32
      }
    }
    attr {
      key: "_output_shapes"
      value {
        list {
          shape {
            dim {
              size: 2
            }
          }
        }
      }
    }
    attr {
      key: "axis"
      value {
        i: 0
      }
    }
  }
  node {
    name: "dnn/input_from_feature_columns/input_layer/Sex/Reshape"
    op: "Reshape"
    input: "dnn/input_from_feature_columns/input_layer/Sex/Cast"
    input: "dnn/input_from_feature_columns/input_layer/Sex/Reshape/shape"
    attr {
      key: "T"
      value {
        type: DT_FLOAT
      }
    }
    attr {
      key: "Tshape"
      value {
        type: DT_INT32
      }
    }
    attr {
      key: "_output_shapes"
      value {
        list {
          shape {
            dim {
              size: -1
            }
            dim {
              size: 1
            }
          }
        }
      }
    }
  }
  node {
    name: "dnn/input_from_feature_columns/input_layer/Slope/ExpandDims/dim"
    op: "Const"
    attr {
      key: "_output_shapes"
      value {
        list {
          shape {
          }
        }
      }
    }
    attr {
      key: "dtype"
      value {
        type: DT_INT32
      }
    }
    attr {
      key: "value"
      value {
        tensor {
          dtype: DT_INT32
          tensor_shape {
          }
          int_val: -1
        }
      }
    }
  }
  node {
    name: "dnn/input_from_feature_columns/input_layer/Slope/ExpandDims"
    op: "ExpandDims"
    input: "Slope_1"
    input: "dnn/input_from_feature_columns/input_layer/Slope/ExpandDims/dim"
    attr {
      key: "T"
      value {
        type: DT_INT32
      }
    }
    attr {
      key: "Tdim"
      value {
        type: DT_INT32
      }
    }
    attr {
      key: "_output_shapes"
      value {
        list {
          shape {
            dim {
              size: -1
            }
            dim {
              size: 1
            }
          }
        }
      }
    }
  }
  node {
    name: "dnn/input_from_feature_columns/input_layer/Slope/Cast"
    op: "Cast"
    input: "dnn/input_from_feature_columns/input_layer/Slope/ExpandDims"
    attr {
      key: "DstT"
      value {
        type: DT_FLOAT
      }
    }
    attr {
      key: "SrcT"
      value {
        type: DT_INT32
      }
    }
    attr {
      key: "Truncate"
      value {
        b: false
      }
    }
    attr {
      key: "_output_shapes"
      value {
        list {
          shape {
            dim {
              size: -1
            }
            dim {
              size: 1
            }
          }
        }
      }
    }
  }
  node {
    name: "dnn/input_from_feature_columns/input_layer/Slope/Shape"
    op: "Shape"
    input: "dnn/input_from_feature_columns/input_layer/Slope/Cast"
    attr {
      key: "T"
      value {
        type: DT_FLOAT
      }
    }
    attr {
      key: "_output_shapes"
      value {
        list {
          shape {
            dim {
              size: 2
            }
          }
        }
      }
    }
    attr {
      key: "out_type"
      value {
        type: DT_INT32
      }
    }
  }
  node {
    name: "dnn/input_from_feature_columns/input_layer/Slope/strided_slice/stack"
    op: "Const"
    attr {
      key: "_output_shapes"
      value {
        list {
          shape {
            dim {
              size: 1
            }
          }
        }
      }
    }
    attr {
      key: "dtype"
      value {
        type: DT_INT32
      }
    }
    attr {
      key: "value"
      value {
        tensor {
          dtype: DT_INT32
          tensor_shape {
            dim {
              size: 1
            }
          }
          int_val: 0
        }
      }
    }
  }
  node {
    name: "dnn/input_from_feature_columns/input_layer/Slope/strided_slice/stack_1"
    op: "Const"
    attr {
      key: "_output_shapes"
      value {
        list {
          shape {
            dim {
              size: 1
            }
          }
        }
      }
    }
    attr {
      key: "dtype"
      value {
        type: DT_INT32
      }
    }
    attr {
      key: "value"
      value {
        tensor {
          dtype: DT_INT32
          tensor_shape {
            dim {
              size: 1
            }
          }
          int_val: 1
        }
      }
    }
  }
  node {
    name: "dnn/input_from_feature_columns/input_layer/Slope/strided_slice/stack_2"
    op: "Const"
    attr {
      key: "_output_shapes"
      value {
        list {
          shape {
            dim {
              size: 1
            }
          }
        }
      }
    }
    attr {
      key: "dtype"
      value {
        type: DT_INT32
      }
    }
    attr {
      key: "value"
      value {
        tensor {
          dtype: DT_INT32
          tensor_shape {
            dim {
              size: 1
            }
          }
          int_val: 1
        }
      }
    }
  }
  node {
    name: "dnn/input_from_feature_columns/input_layer/Slope/strided_slice"
    op: "StridedSlice"
    input: "dnn/input_from_feature_columns/input_layer/Slope/Shape"
    input: "dnn/input_from_feature_columns/input_layer/Slope/strided_slice/stack"
    input: "dnn/input_from_feature_columns/input_layer/Slope/strided_slice/stack_1"
    input: "dnn/input_from_feature_columns/input_layer/Slope/strided_slice/stack_2"
    attr {
      key: "Index"
      value {
        type: DT_INT32
      }
    }
    attr {
      key: "T"
      value {
        type: DT_INT32
      }
    }
    attr {
      key: "_output_shapes"
      value {
        list {
          shape {
          }
        }
      }
    }
    attr {
      key: "begin_mask"
      value {
        i: 0
      }
    }
    attr {
      key: "ellipsis_mask"
      value {
        i: 0
      }
    }
    attr {
      key: "end_mask"
      value {
        i: 0
      }
    }
    attr {
      key: "new_axis_mask"
      value {
        i: 0
      }
    }
    attr {
      key: "shrink_axis_mask"
      value {
        i: 1
      }
    }
  }
  node {
    name: "dnn/input_from_feature_columns/input_layer/Slope/Reshape/shape/1"
    op: "Const"
    attr {
      key: "_output_shapes"
      value {
        list {
          shape {
          }
        }
      }
    }
    attr {
      key: "dtype"
      value {
        type: DT_INT32
      }
    }
    attr {
      key: "value"
      value {
        tensor {
          dtype: DT_INT32
          tensor_shape {
          }
          int_val: 1
        }
      }
    }
  }
  node {
    name: "dnn/input_from_feature_columns/input_layer/Slope/Reshape/shape"
    op: "Pack"
    input: "dnn/input_from_feature_columns/input_layer/Slope/strided_slice"
    input: "dnn/input_from_feature_columns/input_layer/Slope/Reshape/shape/1"
    attr {
      key: "N"
      value {
        i: 2
      }
    }
    attr {
      key: "T"
      value {
        type: DT_INT32
      }
    }
    attr {
      key: "_output_shapes"
      value {
        list {
          shape {
            dim {
              size: 2
            }
          }
        }
      }
    }
    attr {
      key: "axis"
      value {
        i: 0
      }
    }
  }
  node {
    name: "dnn/input_from_feature_columns/input_layer/Slope/Reshape"
    op: "Reshape"
    input: "dnn/input_from_feature_columns/input_layer/Slope/Cast"
    input: "dnn/input_from_feature_columns/input_layer/Slope/Reshape/shape"
    attr {
      key: "T"
      value {
        type: DT_FLOAT
      }
    }
    attr {
      key: "Tshape"
      value {
        type: DT_INT32
      }
    }
    attr {
      key: "_output_shapes"
      value {
        list {
          shape {
            dim {
              size: -1
            }
            dim {
              size: 1
            }
          }
        }
      }
    }
  }
  node {
    name: "dnn/input_from_feature_columns/input_layer/Thal_embedding/ExpandDims/dim"
    op: "Const"
    attr {
      key: "_output_shapes"
      value {
        list {
          shape {
          }
        }
      }
    }
    attr {
      key: "dtype"
      value {
        type: DT_INT32
      }
    }
    attr {
      key: "value"
      value {
        tensor {
          dtype: DT_INT32
          tensor_shape {
          }
          int_val: -1
        }
      }
    }
  }
  node {
    name: "dnn/input_from_feature_columns/input_layer/Thal_embedding/ExpandDims"
    op: "ExpandDims"
    input: "Thal_1"
    input: "dnn/input_from_feature_columns/input_layer/Thal_embedding/ExpandDims/dim"
    attr {
      key: "T"
      value {
        type: DT_STRING
      }
    }
    attr {
      key: "Tdim"
      value {
        type: DT_INT32
      }
    }
    attr {
      key: "_output_shapes"
      value {
        list {
          shape {
            dim {
              size: -1
            }
            dim {
              size: 1
            }
          }
        }
      }
    }
  }
  node {
    name: "dnn/input_from_feature_columns/input_layer/Thal_embedding/to_sparse_input/ignore_value/x"
    op: "Const"
    attr {
      key: "_output_shapes"
      value {
        list {
          shape {
          }
        }
      }
    }
    attr {
      key: "dtype"
      value {
        type: DT_STRING
      }
    }
    attr {
      key: "value"
      value {
        tensor {
          dtype: DT_STRING
          tensor_shape {
          }
          string_val: ""
        }
      }
    }
  }
  node {
    name: "dnn/input_from_feature_columns/input_layer/Thal_embedding/to_sparse_input/NotEqual"
    op: "NotEqual"
    input: "dnn/input_from_feature_columns/input_layer/Thal_embedding/ExpandDims"
    input: "dnn/input_from_feature_columns/input_layer/Thal_embedding/to_sparse_input/ignore_value/x"
    attr {
      key: "T"
      value {
        type: DT_STRING
      }
    }
    attr {
      key: "_output_shapes"
      value {
        list {
          shape {
            dim {
              size: -1
            }
            dim {
              size: 1
            }
          }
        }
      }
    }
  }
  node {
    name: "dnn/input_from_feature_columns/input_layer/Thal_embedding/to_sparse_input/indices"
    op: "Where"
    input: "dnn/input_from_feature_columns/input_layer/Thal_embedding/to_sparse_input/NotEqual"
    attr {
      key: "T"
      value {
        type: DT_BOOL
      }
    }
    attr {
      key: "_output_shapes"
      value {
        list {
          shape {
            dim {
              size: -1
            }
            dim {
              size: 2
            }
          }
        }
      }
    }
  }
  node {
    name: "dnn/input_from_feature_columns/input_layer/Thal_embedding/to_sparse_input/values"
    op: "GatherNd"
    input: "dnn/input_from_feature_columns/input_layer/Thal_embedding/ExpandDims"
    input: "dnn/input_from_feature_columns/input_layer/Thal_embedding/to_sparse_input/indices"
    attr {
      key: "Tindices"
      value {
        type: DT_INT64
      }
    }
    attr {
      key: "Tparams"
      value {
        type: DT_STRING
      }
    }
    attr {
      key: "_output_shapes"
      value {
        list {
          shape {
            dim {
              size: -1
            }
          }
        }
      }
    }
  }
  node {
    name: "dnn/input_from_feature_columns/input_layer/Thal_embedding/to_sparse_input/dense_shape"
    op: "Shape"
    input: "dnn/input_from_feature_columns/input_layer/Thal_embedding/ExpandDims"
    attr {
      key: "T"
      value {
        type: DT_STRING
      }
    }
    attr {
      key: "_output_shapes"
      value {
        list {
          shape {
            dim {
              size: 2
            }
          }
        }
      }
    }
    attr {
      key: "out_type"
      value {
        type: DT_INT64
      }
    }
  }
  node {
    name: "dnn/input_from_feature_columns/input_layer/Thal_embedding/Thal_lookup/Const"
    op: "Const"
    attr {
      key: "_output_shapes"
      value {
        list {
          shape {
            dim {
              size: 3
            }
          }
        }
      }
    }
    attr {
      key: "dtype"
      value {
        type: DT_STRING
      }
    }
    attr {
      key: "value"
      value {
        tensor {
          dtype: DT_STRING
          tensor_shape {
            dim {
              size: 3
            }
          }
          string_val: "fixed"
          string_val: "normal"
          string_val: "reversible"
        }
      }
    }
  }
  node {
    name: "dnn/input_from_feature_columns/input_layer/Thal_embedding/Thal_lookup/Size"
    op: "Const"
    attr {
      key: "_output_shapes"
      value {
        list {
          shape {
          }
        }
      }
    }
    attr {
      key: "dtype"
      value {
        type: DT_INT32
      }
    }
    attr {
      key: "value"
      value {
        tensor {
          dtype: DT_INT32
          tensor_shape {
          }
          int_val: 3
        }
      }
    }
  }
  node {
    name: "dnn/input_from_feature_columns/input_layer/Thal_embedding/Thal_lookup/range/start"
    op: "Const"
    attr {
      key: "_output_shapes"
      value {
        list {
          shape {
          }
        }
      }
    }
    attr {
      key: "dtype"
      value {
        type: DT_INT32
      }
    }
    attr {
      key: "value"
      value {
        tensor {
          dtype: DT_INT32
          tensor_shape {
          }
          int_val: 0
        }
      }
    }
  }
  node {
    name: "dnn/input_from_feature_columns/input_layer/Thal_embedding/Thal_lookup/range/delta"
    op: "Const"
    attr {
      key: "_output_shapes"
      value {
        list {
          shape {
          }
        }
      }
    }
    attr {
      key: "dtype"
      value {
        type: DT_INT32
      }
    }
    attr {
      key: "value"
      value {
        tensor {
          dtype: DT_INT32
          tensor_shape {
          }
          int_val: 1
        }
      }
    }
  }
  node {
    name: "dnn/input_from_feature_columns/input_layer/Thal_embedding/Thal_lookup/range"
    op: "Range"
    input: "dnn/input_from_feature_columns/input_layer/Thal_embedding/Thal_lookup/range/start"
    input: "dnn/input_from_feature_columns/input_layer/Thal_embedding/Thal_lookup/Size"
    input: "dnn/input_from_feature_columns/input_layer/Thal_embedding/Thal_lookup/range/delta"
    attr {
      key: "Tidx"
      value {
        type: DT_INT32
      }
    }
    attr {
      key: "_output_shapes"
      value {
        list {
          shape {
            dim {
              size: 3
            }
          }
        }
      }
    }
  }
  node {
    name: "dnn/input_from_feature_columns/input_layer/Thal_embedding/Thal_lookup/Cast"
    op: "Cast"
    input: "dnn/input_from_feature_columns/input_layer/Thal_embedding/Thal_lookup/range"
    attr {
      key: "DstT"
      value {
        type: DT_INT64
      }
    }
    attr {
      key: "SrcT"
      value {
        type: DT_INT32
      }
    }
    attr {
      key: "Truncate"
      value {
        b: false
      }
    }
    attr {
      key: "_output_shapes"
      value {
        list {
          shape {
            dim {
              size: 3
            }
          }
        }
      }
    }
  }
  node {
    name: "dnn/input_from_feature_columns/input_layer/Thal_embedding/Thal_lookup/hash_table/Const"
    op: "Const"
    attr {
      key: "_output_shapes"
      value {
        list {
          shape {
          }
        }
      }
    }
    attr {
      key: "dtype"
      value {
        type: DT_INT64
      }
    }
    attr {
      key: "value"
      value {
        tensor {
          dtype: DT_INT64
          tensor_shape {
          }
          int64_val: -1
        }
      }
    }
  }
  node {
    name: "dnn/input_from_feature_columns/input_layer/Thal_embedding/Thal_lookup/hash_table/hash_table"
    op: "HashTableV2"
    attr {
      key: "_output_shapes"
      value {
        list {
          shape {
          }
        }
      }
    }
    attr {
      key: "container"
      value {
        s: ""
      }
    }
    attr {
      key: "key_dtype"
      value {
        type: DT_STRING
      }
    }
    attr {
      key: "shared_name"
      value {
        s: ""
      }
    }
    attr {
      key: "use_node_name_sharing"
      value {
        b: false
      }
    }
    attr {
      key: "value_dtype"
      value {
        type: DT_INT64
      }
    }
  }
  node {
    name: "dnn/input_from_feature_columns/input_layer/Thal_embedding/Thal_lookup/hash_table/table_init/LookupTableImportV2"
    op: "LookupTableImportV2"
    input: "dnn/input_from_feature_columns/input_layer/Thal_embedding/Thal_lookup/hash_table/hash_table"
    input: "dnn/input_from_feature_columns/input_layer/Thal_embedding/Thal_lookup/Const"
    input: "dnn/input_from_feature_columns/input_layer/Thal_embedding/Thal_lookup/Cast"
    attr {
      key: "Tin"
      value {
        type: DT_STRING
      }
    }
    attr {
      key: "Tout"
      value {
        type: DT_INT64
      }
    }
  }
  node {
    name: "dnn/input_from_feature_columns/input_layer/Thal_embedding/hash_table_Lookup/LookupTableFindV2"
    op: "LookupTableFindV2"
    input: "dnn/input_from_feature_columns/input_layer/Thal_embedding/Thal_lookup/hash_table/hash_table"
    input: "dnn/input_from_feature_columns/input_layer/Thal_embedding/to_sparse_input/values"
    input: "dnn/input_from_feature_columns/input_layer/Thal_embedding/Thal_lookup/hash_table/Const"
    attr {
      key: "Tin"
      value {
        type: DT_STRING
      }
    }
    attr {
      key: "Tout"
      value {
        type: DT_INT64
      }
    }
    attr {
      key: "_output_shapes"
      value {
        list {
          shape {
            dim {
              size: -1
            }
          }
        }
      }
    }
  }
  node {
    name: "dnn/input_from_feature_columns/input_layer/Thal_embedding/Thal_embedding_weights/Slice/begin"
    op: "Const"
    attr {
      key: "_output_shapes"
      value {
        list {
          shape {
            dim {
              size: 1
            }
          }
        }
      }
    }
    attr {
      key: "dtype"
      value {
        type: DT_INT32
      }
    }
    attr {
      key: "value"
      value {
        tensor {
          dtype: DT_INT32
          tensor_shape {
            dim {
              size: 1
            }
          }
          int_val: 0
        }
      }
    }
  }
  node {
    name: "dnn/input_from_feature_columns/input_layer/Thal_embedding/Thal_embedding_weights/Slice/size"
    op: "Const"
    attr {
      key: "_output_shapes"
      value {
        list {
          shape {
            dim {
              size: 1
            }
          }
        }
      }
    }
    attr {
      key: "dtype"
      value {
        type: DT_INT32
      }
    }
    attr {
      key: "value"
      value {
        tensor {
          dtype: DT_INT32
          tensor_shape {
            dim {
              size: 1
            }
          }
          int_val: 1
        }
      }
    }
  }
  node {
    name: "dnn/input_from_feature_columns/input_layer/Thal_embedding/Thal_embedding_weights/Slice"
    op: "Slice"
    input: "dnn/input_from_feature_columns/input_layer/Thal_embedding/to_sparse_input/dense_shape"
    input: "dnn/input_from_feature_columns/input_layer/Thal_embedding/Thal_embedding_weights/Slice/begin"
    input: "dnn/input_from_feature_columns/input_layer/Thal_embedding/Thal_embedding_weights/Slice/size"
    attr {
      key: "Index"
      value {
        type: DT_INT32
      }
    }
    attr {
      key: "T"
      value {
        type: DT_INT64
      }
    }
    attr {
      key: "_output_shapes"
      value {
        list {
          shape {
            dim {
              size: 1
            }
          }
        }
      }
    }
  }
  node {
    name: "dnn/input_from_feature_columns/input_layer/Thal_embedding/Thal_embedding_weights/Const"
    op: "Const"
    attr {
      key: "_output_shapes"
      value {
        list {
          shape {
            dim {
              size: 1
            }
          }
        }
      }
    }
    attr {
      key: "dtype"
      value {
        type: DT_INT32
      }
    }
    attr {
      key: "value"
      value {
        tensor {
          dtype: DT_INT32
          tensor_shape {
            dim {
              size: 1
            }
          }
          int_val: 0
        }
      }
    }
  }
  node {
    name: "dnn/input_from_feature_columns/input_layer/Thal_embedding/Thal_embedding_weights/Prod"
    op: "Prod"
    input: "dnn/input_from_feature_columns/input_layer/Thal_embedding/Thal_embedding_weights/Slice"
    input: "dnn/input_from_feature_columns/input_layer/Thal_embedding/Thal_embedding_weights/Const"
    attr {
      key: "T"
      value {
        type: DT_INT64
      }
    }
    attr {
      key: "Tidx"
      value {
        type: DT_INT32
      }
    }
    attr {
      key: "_output_shapes"
      value {
        list {
          shape {
          }
        }
      }
    }
    attr {
      key: "keep_dims"
      value {
        b: false
      }
    }
  }
  node {
    name: "dnn/input_from_feature_columns/input_layer/Thal_embedding/Thal_embedding_weights/GatherV2/indices"
    op: "Const"
    attr {
      key: "_output_shapes"
      value {
        list {
          shape {
          }
        }
      }
    }
    attr {
      key: "dtype"
      value {
        type: DT_INT32
      }
    }
    attr {
      key: "value"
      value {
        tensor {
          dtype: DT_INT32
          tensor_shape {
          }
          int_val: 1
        }
      }
    }
  }
  node {
    name: "dnn/input_from_feature_columns/input_layer/Thal_embedding/Thal_embedding_weights/GatherV2/axis"
    op: "Const"
    attr {
      key: "_output_shapes"
      value {
        list {
          shape {
          }
        }
      }
    }
    attr {
      key: "dtype"
      value {
        type: DT_INT32
      }
    }
    attr {
      key: "value"
      value {
        tensor {
          dtype: DT_INT32
          tensor_shape {
          }
          int_val: 0
        }
      }
    }
  }
  node {
    name: "dnn/input_from_feature_columns/input_layer/Thal_embedding/Thal_embedding_weights/GatherV2"
    op: "GatherV2"
    input: "dnn/input_from_feature_columns/input_layer/Thal_embedding/to_sparse_input/dense_shape"
    input: "dnn/input_from_feature_columns/input_layer/Thal_embedding/Thal_embedding_weights/GatherV2/indices"
    input: "dnn/input_from_feature_columns/input_layer/Thal_embedding/Thal_embedding_weights/GatherV2/axis"
    attr {
      key: "Taxis"
      value {
        type: DT_INT32
      }
    }
    attr {
      key: "Tindices"
      value {
        type: DT_INT32
      }
    }
    attr {
      key: "Tparams"
      value {
        type: DT_INT64
      }
    }
    attr {
      key: "_output_shapes"
      value {
        list {
          shape {
          }
        }
      }
    }
    attr {
      key: "batch_dims"
      value {
        i: 0
      }
    }
  }
  node {
    name: "dnn/input_from_feature_columns/input_layer/Thal_embedding/Thal_embedding_weights/Cast/x"
    op: "Pack"
    input: "dnn/input_from_feature_columns/input_layer/Thal_embedding/Thal_embedding_weights/Prod"
    input: "dnn/input_from_feature_columns/input_layer/Thal_embedding/Thal_embedding_weights/GatherV2"
    attr {
      key: "N"
      value {
        i: 2
      }
    }
    attr {
      key: "T"
      value {
        type: DT_INT64
      }
    }
    attr {
      key: "_output_shapes"
      value {
        list {
          shape {
            dim {
              size: 2
            }
          }
        }
      }
    }
    attr {
      key: "axis"
      value {
        i: 0
      }
    }
  }
  node {
    name: "dnn/input_from_feature_columns/input_layer/Thal_embedding/Thal_embedding_weights/SparseReshape"
    op: "SparseReshape"
    input: "dnn/input_from_feature_columns/input_layer/Thal_embedding/to_sparse_input/indices"
    input: "dnn/input_from_feature_columns/input_layer/Thal_embedding/to_sparse_input/dense_shape"
    input: "dnn/input_from_feature_columns/input_layer/Thal_embedding/Thal_embedding_weights/Cast/x"
    attr {
      key: "_output_shapes"
      value {
        list {
          shape {
            dim {
              size: -1
            }
            dim {
              size: 2
            }
          }
          shape {
            dim {
              size: 2
            }
          }
        }
      }
    }
  }
  node {
    name: "dnn/input_from_feature_columns/input_layer/Thal_embedding/Thal_embedding_weights/SparseReshape/Identity"
    op: "Identity"
    input: "dnn/input_from_feature_columns/input_layer/Thal_embedding/hash_table_Lookup/LookupTableFindV2"
    attr {
      key: "T"
      value {
        type: DT_INT64
      }
    }
    attr {
      key: "_output_shapes"
      value {
        list {
          shape {
            dim {
              size: -1
            }
          }
        }
      }
    }
  }
  node {
    name: "dnn/input_from_feature_columns/input_layer/Thal_embedding/Thal_embedding_weights/GreaterEqual/y"
    op: "Const"
    attr {
      key: "_output_shapes"
      value {
        list {
          shape {
          }
        }
      }
    }
    attr {
      key: "dtype"
      value {
        type: DT_INT64
      }
    }
    attr {
      key: "value"
      value {
        tensor {
          dtype: DT_INT64
          tensor_shape {
          }
          int64_val: 0
        }
      }
    }
  }
  node {
    name: "dnn/input_from_feature_columns/input_layer/Thal_embedding/Thal_embedding_weights/GreaterEqual"
    op: "GreaterEqual"
    input: "dnn/input_from_feature_columns/input_layer/Thal_embedding/Thal_embedding_weights/SparseReshape/Identity"
    input: "dnn/input_from_feature_columns/input_layer/Thal_embedding/Thal_embedding_weights/GreaterEqual/y"
    attr {
      key: "T"
      value {
        type: DT_INT64
      }
    }
    attr {
      key: "_output_shapes"
      value {
        list {
          shape {
            dim {
              size: -1
            }
          }
        }
      }
    }
  }
  node {
    name: "dnn/input_from_feature_columns/input_layer/Thal_embedding/Thal_embedding_weights/Where"
    op: "Where"
    input: "dnn/input_from_feature_columns/input_layer/Thal_embedding/Thal_embedding_weights/GreaterEqual"
    attr {
      key: "T"
      value {
        type: DT_BOOL
      }
    }
    attr {
      key: "_output_shapes"
      value {
        list {
          shape {
            dim {
              size: -1
            }
            dim {
              size: 1
            }
          }
        }
      }
    }
  }
  node {
    name: "dnn/input_from_feature_columns/input_layer/Thal_embedding/Thal_embedding_weights/Reshape/shape"
    op: "Const"
    attr {
      key: "_output_shapes"
      value {
        list {
          shape {
            dim {
              size: 1
            }
          }
        }
      }
    }
    attr {
      key: "dtype"
      value {
        type: DT_INT32
      }
    }
    attr {
      key: "value"
      value {
        tensor {
          dtype: DT_INT32
          tensor_shape {
            dim {
              size: 1
            }
          }
          int_val: -1
        }
      }
    }
  }
  node {
    name: "dnn/input_from_feature_columns/input_layer/Thal_embedding/Thal_embedding_weights/Reshape"
    op: "Reshape"
    input: "dnn/input_from_feature_columns/input_layer/Thal_embedding/Thal_embedding_weights/Where"
    input: "dnn/input_from_feature_columns/input_layer/Thal_embedding/Thal_embedding_weights/Reshape/shape"
    attr {
      key: "T"
      value {
        type: DT_INT64
      }
    }
    attr {
      key: "Tshape"
      value {
        type: DT_INT32
      }
    }
    attr {
      key: "_output_shapes"
      value {
        list {
          shape {
            dim {
              size: -1
            }
          }
        }
      }
    }
  }
  node {
    name: "dnn/input_from_feature_columns/input_layer/Thal_embedding/Thal_embedding_weights/GatherV2_1/axis"
    op: "Const"
    attr {
      key: "_output_shapes"
      value {
        list {
          shape {
          }
        }
      }
    }
    attr {
      key: "dtype"
      value {
        type: DT_INT32
      }
    }
    attr {
      key: "value"
      value {
        tensor {
          dtype: DT_INT32
          tensor_shape {
          }
          int_val: 0
        }
      }
    }
  }
  node {
    name: "dnn/input_from_feature_columns/input_layer/Thal_embedding/Thal_embedding_weights/GatherV2_1"
    op: "GatherV2"
    input: "dnn/input_from_feature_columns/input_layer/Thal_embedding/Thal_embedding_weights/SparseReshape"
    input: "dnn/input_from_feature_columns/input_layer/Thal_embedding/Thal_embedding_weights/Reshape"
    input: "dnn/input_from_feature_columns/input_layer/Thal_embedding/Thal_embedding_weights/GatherV2_1/axis"
    attr {
      key: "Taxis"
      value {
        type: DT_INT32
      }
    }
    attr {
      key: "Tindices"
      value {
        type: DT_INT64
      }
    }
    attr {
      key: "Tparams"
      value {
        type: DT_INT64
      }
    }
    attr {
      key: "_output_shapes"
      value {
        list {
          shape {
            dim {
              size: -1
            }
            dim {
              size: 2
            }
          }
        }
      }
    }
    attr {
      key: "batch_dims"
      value {
        i: 0
      }
    }
  }
  node {
    name: "dnn/input_from_feature_columns/input_layer/Thal_embedding/Thal_embedding_weights/GatherV2_2/axis"
    op: "Const"
    attr {
      key: "_output_shapes"
      value {
        list {
          shape {
          }
        }
      }
    }
    attr {
      key: "dtype"
      value {
        type: DT_INT32
      }
    }
    attr {
      key: "value"
      value {
        tensor {
          dtype: DT_INT32
          tensor_shape {
          }
          int_val: 0
        }
      }
    }
  }
  node {
    name: "dnn/input_from_feature_columns/input_layer/Thal_embedding/Thal_embedding_weights/GatherV2_2"
    op: "GatherV2"
    input: "dnn/input_from_feature_columns/input_layer/Thal_embedding/Thal_embedding_weights/SparseReshape/Identity"
    input: "dnn/input_from_feature_columns/input_layer/Thal_embedding/Thal_embedding_weights/Reshape"
    input: "dnn/input_from_feature_columns/input_layer/Thal_embedding/Thal_embedding_weights/GatherV2_2/axis"
    attr {
      key: "Taxis"
      value {
        type: DT_INT32
      }
    }
    attr {
      key: "Tindices"
      value {
        type: DT_INT64
      }
    }
    attr {
      key: "Tparams"
      value {
        type: DT_INT64
      }
    }
    attr {
      key: "_output_shapes"
      value {
        list {
          shape {
            dim {
              size: -1
            }
          }
        }
      }
    }
    attr {
      key: "batch_dims"
      value {
        i: 0
      }
    }
  }
  node {
    name: "dnn/input_from_feature_columns/input_layer/Thal_embedding/Thal_embedding_weights/Identity"
    op: "Identity"
    input: "dnn/input_from_feature_columns/input_layer/Thal_embedding/Thal_embedding_weights/SparseReshape:1"
    attr {
      key: "T"
      value {
        type: DT_INT64
      }
    }
    attr {
      key: "_output_shapes"
      value {
        list {
          shape {
            dim {
              size: 2
            }
          }
        }
      }
    }
  }
  node {
    name: "dnn/input_from_feature_columns/input_layer/Thal_embedding/Thal_embedding_weights/SparseFillEmptyRows/Const"
    op: "Const"
    attr {
      key: "_output_shapes"
      value {
        list {
          shape {
          }
        }
      }
    }
    attr {
      key: "dtype"
      value {
        type: DT_INT64
      }
    }
    attr {
      key: "value"
      value {
        tensor {
          dtype: DT_INT64
          tensor_shape {
          }
          int64_val: 0
        }
      }
    }
  }
  node {
    name: "dnn/input_from_feature_columns/input_layer/Thal_embedding/Thal_embedding_weights/SparseFillEmptyRows/SparseFillEmptyRows"
    op: "SparseFillEmptyRows"
    input: "dnn/input_from_feature_columns/input_layer/Thal_embedding/Thal_embedding_weights/GatherV2_1"
    input: "dnn/input_from_feature_columns/input_layer/Thal_embedding/Thal_embedding_weights/GatherV2_2"
    input: "dnn/input_from_feature_columns/input_layer/Thal_embedding/Thal_embedding_weights/Identity"
    input: "dnn/input_from_feature_columns/input_layer/Thal_embedding/Thal_embedding_weights/SparseFillEmptyRows/Const"
    attr {
      key: "T"
      value {
        type: DT_INT64
      }
    }
    attr {
      key: "_output_shapes"
      value {
        list {
          shape {
            dim {
              size: -1
            }
            dim {
              size: 2
            }
          }
          shape {
            dim {
              size: -1
            }
          }
          shape {
            dim {
              size: -1
            }
          }
          shape {
            dim {
              size: -1
            }
          }
        }
      }
    }
  }
  node {
    name: "dnn/input_from_feature_columns/input_layer/Thal_embedding/Thal_embedding_weights/embedding_lookup_sparse/strided_slice/stack"
    op: "Const"
    attr {
      key: "_output_shapes"
      value {
        list {
          shape {
            dim {
              size: 2
            }
          }
        }
      }
    }
    attr {
      key: "dtype"
      value {
        type: DT_INT32
      }
    }
    attr {
      key: "value"
      value {
        tensor {
          dtype: DT_INT32
          tensor_shape {
            dim {
              size: 2
            }
          }
          tensor_content: "\000\000\000\000\000\000\000\000"
        }
      }
    }
  }
  node {
    name: "dnn/input_from_feature_columns/input_layer/Thal_embedding/Thal_embedding_weights/embedding_lookup_sparse/strided_slice/stack_1"
    op: "Const"
    attr {
      key: "_output_shapes"
      value {
        list {
          shape {
            dim {
              size: 2
            }
          }
        }
      }
    }
    attr {
      key: "dtype"
      value {
        type: DT_INT32
      }
    }
    attr {
      key: "value"
      value {
        tensor {
          dtype: DT_INT32
          tensor_shape {
            dim {
              size: 2
            }
          }
          tensor_content: "\000\000\000\000\001\000\000\000"
        }
      }
    }
  }
  node {
    name: "dnn/input_from_feature_columns/input_layer/Thal_embedding/Thal_embedding_weights/embedding_lookup_sparse/strided_slice/stack_2"
    op: "Const"
    attr {
      key: "_output_shapes"
      value {
        list {
          shape {
            dim {
              size: 2
            }
          }
        }
      }
    }
    attr {
      key: "dtype"
      value {
        type: DT_INT32
      }
    }
    attr {
      key: "value"
      value {
        tensor {
          dtype: DT_INT32
          tensor_shape {
            dim {
              size: 2
            }
          }
          tensor_content: "\001\000\000\000\001\000\000\000"
        }
      }
    }
  }
  node {
    name: "dnn/input_from_feature_columns/input_layer/Thal_embedding/Thal_embedding_weights/embedding_lookup_sparse/strided_slice"
    op: "StridedSlice"
    input: "dnn/input_from_feature_columns/input_layer/Thal_embedding/Thal_embedding_weights/SparseFillEmptyRows/SparseFillEmptyRows"
    input: "dnn/input_from_feature_columns/input_layer/Thal_embedding/Thal_embedding_weights/embedding_lookup_sparse/strided_slice/stack"
    input: "dnn/input_from_feature_columns/input_layer/Thal_embedding/Thal_embedding_weights/embedding_lookup_sparse/strided_slice/stack_1"
    input: "dnn/input_from_feature_columns/input_layer/Thal_embedding/Thal_embedding_weights/embedding_lookup_sparse/strided_slice/stack_2"
    attr {
      key: "Index"
      value {
        type: DT_INT32
      }
    }
    attr {
      key: "T"
      value {
        type: DT_INT64
      }
    }
    attr {
      key: "_output_shapes"
      value {
        list {
          shape {
            dim {
              size: -1
            }
          }
        }
      }
    }
    attr {
      key: "begin_mask"
      value {
        i: 1
      }
    }
    attr {
      key: "ellipsis_mask"
      value {
        i: 0
      }
    }
    attr {
      key: "end_mask"
      value {
        i: 1
      }
    }
    attr {
      key: "new_axis_mask"
      value {
        i: 0
      }
    }
    attr {
      key: "shrink_axis_mask"
      value {
        i: 2
      }
    }
  }
  node {
    name: "dnn/input_from_feature_columns/input_layer/Thal_embedding/Thal_embedding_weights/embedding_lookup_sparse/Cast"
    op: "Cast"
    input: "dnn/input_from_feature_columns/input_layer/Thal_embedding/Thal_embedding_weights/embedding_lookup_sparse/strided_slice"
    attr {
      key: "DstT"
      value {
        type: DT_INT32
      }
    }
    attr {
      key: "SrcT"
      value {
        type: DT_INT64
      }
    }
    attr {
      key: "Truncate"
      value {
        b: false
      }
    }
    attr {
      key: "_output_shapes"
      value {
        list {
          shape {
            dim {
              size: -1
            }
          }
        }
      }
    }
  }
  node {
    name: "dnn/input_from_feature_columns/input_layer/Thal_embedding/Thal_embedding_weights/embedding_lookup_sparse/Unique"
    op: "Unique"
    input: "dnn/input_from_feature_columns/input_layer/Thal_embedding/Thal_embedding_weights/SparseFillEmptyRows/SparseFillEmptyRows:1"
    attr {
      key: "T"
      value {
        type: DT_INT64
      }
    }
    attr {
      key: "_output_shapes"
      value {
        list {
          shape {
            dim {
              size: -1
            }
          }
          shape {
            dim {
              size: -1
            }
          }
        }
      }
    }
    attr {
      key: "out_idx"
      value {
        type: DT_INT32
      }
    }
  }
  node {
    name: "dnn/input_from_feature_columns/input_layer/Thal_embedding/Thal_embedding_weights/embedding_lookup_sparse/embedding_lookup"
    op: "ResourceGather"
    input: "dnn/input_from_feature_columns/input_layer/Thal_embedding/embedding_weights/part_0"
    input: "dnn/input_from_feature_columns/input_layer/Thal_embedding/Thal_embedding_weights/embedding_lookup_sparse/Unique"
    attr {
      key: "Tindices"
      value {
        type: DT_INT64
      }
    }
    attr {
      key: "_class"
      value {
        list {
          s: "loc:@dnn/input_from_feature_columns/input_layer/Thal_embedding/embedding_weights/part_0"
        }
      }
    }
    attr {
      key: "_output_shapes"
      value {
        list {
          shape {
            dim {
              size: -1
            }
            dim {
              size: 8
            }
          }
        }
      }
    }
    attr {
      key: "batch_dims"
      value {
        i: 0
      }
    }
    attr {
      key: "dtype"
      value {
        type: DT_FLOAT
      }
    }
    attr {
      key: "validate_indices"
      value {
        b: true
      }
    }
  }
  node {
    name: "dnn/input_from_feature_columns/input_layer/Thal_embedding/Thal_embedding_weights/embedding_lookup_sparse/embedding_lookup/Identity"
    op: "Identity"
    input: "dnn/input_from_feature_columns/input_layer/Thal_embedding/Thal_embedding_weights/embedding_lookup_sparse/embedding_lookup"
    attr {
      key: "T"
      value {
        type: DT_FLOAT
      }
    }
    attr {
      key: "_class"
      value {
        list {
          s: "loc:@dnn/input_from_feature_columns/input_layer/Thal_embedding/embedding_weights/part_0"
        }
      }
    }
    attr {
      key: "_output_shapes"
      value {
        list {
          shape {
            dim {
              size: -1
            }
            dim {
…
zero_count_7/zero_fraction/cond/count_nonzero/zeros:0\nIlinear/zero_fraction/total_zero/zero_count_7/zero_fraction/cond/pred_id:0\nJlinear/zero_fraction/total_zero/zero_count_7/zero_fraction/cond/switch_t:0\022\256\001\nKlinear/zero_fraction/total_zero/zero_count_7/zero_fraction/ReadVariableOp:0\022_linear/zero_fraction/total_zero/zero_count_7/zero_fraction/cond/count_nonzero/NotEqual/Switch:1\022\226\001\nIlinear/zero_fraction/total_zero/zero_count_7/zero_fraction/cond/pred_id:0\022Ilinear/zero_fraction/total_zero/zero_count_7/zero_fraction/cond/pred_id:02\304\n\n\301\n\nKlinear/zero_fraction/total_zero/zero_count_7/zero_fraction/cond/cond_text_1\022Ilinear/zero_fraction/total_zero/zero_count_7/zero_fraction/cond/pred_id:0\032Jlinear/zero_fraction/total_zero/zero_count_7/zero_fraction/cond/switch_f:0*\332\010\nKlinear/zero_fraction/total_zero/zero_count_7/zero_fraction/ReadVariableOp:0\nVlinear/zero_fraction/total_zero/zero_count_7/zero_fraction/cond/count_nonzero_1/Cast:0\nWlinear/zero_fraction/total_zero/zero_count_7/zero_fraction/cond/count_nonzero_1/Const:0\nalinear/zero_fraction/total_zero/zero_count_7/zero_fraction/cond/count_nonzero_1/NotEqual/Switch:0\nZlinear/zero_fraction/total_zero/zero_count_7/zero_fraction/cond/count_nonzero_1/NotEqual:0\n_linear/zero_fraction/total_zero/zero_count_7/zero_fraction/cond/count_nonzero_1/nonzero_count:0\nWlinear/zero_fraction/total_zero/zero_count_7/zero_fraction/cond/count_nonzero_1/zeros:0\nIlinear/zero_fraction/total_zero/zero_count_7/zero_fraction/cond/pred_id:0\nJlinear/zero_fraction/total_zero/zero_count_7/zero_fraction/cond/switch_f:0\022\226\001\nIlinear/zero_fraction/total_zero/zero_count_7/zero_fraction/cond/pred_id:0\022Ilinear/zero_fraction/total_zero/zero_count_7/zero_fraction/cond/pred_id:0\022\260\001\nKlinear/zero_fraction/total_zero/zero_count_7/zero_fraction/ReadVariableOp:0\022alinear/zero_fraction/total_zero/zero_count_7/zero_fraction/cond/count_nonzero_1/NotEqual/Switch:0"
      value: "\n6linear/zero_fraction/total_zero/zero_count_8/cond_text\0226linear/zero_fraction/total_zero/zero_count_8/pred_id:0\0327linear/zero_fraction/total_zero/zero_count_8/switch_t:0 \001*\231\002\n4linear/zero_fraction/total_zero/zero_count_8/Const:0\n6linear/zero_fraction/total_zero/zero_count_8/pred_id:0\n7linear/zero_fraction/total_zero/zero_count_8/switch_t:0\022p\n6linear/zero_fraction/total_zero/zero_count_8/pred_id:0\0226linear/zero_fraction/total_zero/zero_count_8/pred_id:0"
      value: "\n8linear/zero_fraction/total_zero/zero_count_8/cond_text_1\0226linear/zero_fraction/total_zero/zero_count_8/pred_id:0\0327linear/zero_fraction/total_zero/zero_count_8/switch_f:0*\204\031\n*linear/linear_model/Slope/weights/part_0:0\n(linear/zero_fraction/total_size/Size_8:0\n=linear/zero_fraction/total_zero/zero_count_8/ToFloat/Switch:0\n6linear/zero_fraction/total_zero/zero_count_8/ToFloat:0\n2linear/zero_fraction/total_zero/zero_count_8/mul:0\n6linear/zero_fraction/total_zero/zero_count_8/pred_id:0\n7linear/zero_fraction/total_zero/zero_count_8/switch_f:0\nHlinear/zero_fraction/total_zero/zero_count_8/zero_fraction/LessEqual/y:0\nFlinear/zero_fraction/total_zero/zero_count_8/zero_fraction/LessEqual:0\nRlinear/zero_fraction/total_zero/zero_count_8/zero_fraction/ReadVariableOp/Switch:0\nKlinear/zero_fraction/total_zero/zero_count_8/zero_fraction/ReadVariableOp:0\nAlinear/zero_fraction/total_zero/zero_count_8/zero_fraction/Size:0\nFlinear/zero_fraction/total_zero/zero_count_8/zero_fraction/cond/Cast:0\nGlinear/zero_fraction/total_zero/zero_count_8/zero_fraction/cond/Merge:0\nGlinear/zero_fraction/total_zero/zero_count_8/zero_fraction/cond/Merge:1\nHlinear/zero_fraction/total_zero/zero_count_8/zero_fraction/cond/Switch:0\nHlinear/zero_fraction/total_zero/zero_count_8/zero_fraction/cond/Switch:1\nTlinear/zero_fraction/total_zero/zero_count_8/zero_fraction/cond/count_nonzero/Cast:0\nUlinear/zero_fraction/total_zero/zero_count_8/zero_fraction/cond/count_nonzero/Const:0\n_linear/zero_fraction/total_zero/zero_count_8/zero_fraction/cond/count_nonzero/NotEqual/Switch:1\nXlinear/zero_fraction/total_zero/zero_count_8/zero_fraction/cond/count_nonzero/NotEqual:0\n]linear/zero_fraction/total_zero/zero_count_8/zero_fraction/cond/count_nonzero/nonzero_count:0\nUlinear/zero_fraction/total_zero/zero_count_8/zero_fraction/cond/count_nonzero/zeros:0\nVlinear/zero_fraction/total_zero/zero_count_8/zero_fraction/cond/count_nonzero_1/Cast:0\nWlinear/zero_fraction/total_zero/zero_count_8/zero_fraction/cond/count_nonzero_1/Const:0\nalinear/zero_fraction/total_zero/zero_count_8/zero_fraction/cond/count_nonzero_1/NotEqual/Switch:0\nZlinear/zero_fraction/total_zero/zero_count_8/zero_fraction/cond/count_nonzero_1/NotEqual:0\n_linear/zero_fraction/total_zero/zero_count_8/zero_fraction/cond/count_nonzero_1/nonzero_count:0\nWlinear/zero_fraction/total_zero/zero_count_8/zero_fraction/cond/count_nonzero_1/zeros:0\nIlinear/zero_fraction/total_zero/zero_count_8/zero_fraction/cond/pred_id:0\nJlinear/zero_fraction/total_zero/zero_count_8/zero_fraction/cond/switch_f:0\nJlinear/zero_fraction/total_zero/zero_count_8/zero_fraction/cond/switch_t:0\nTlinear/zero_fraction/total_zero/zero_count_8/zero_fraction/counts_to_fraction/Cast:0\nVlinear/zero_fraction/total_zero/zero_count_8/zero_fraction/counts_to_fraction/Cast_1:0\nSlinear/zero_fraction/total_zero/zero_count_8/zero_fraction/counts_to_fraction/sub:0\nWlinear/zero_fraction/total_zero/zero_count_8/zero_fraction/counts_to_fraction/truediv:0\nElinear/zero_fraction/total_zero/zero_count_8/zero_fraction/fraction:0\022p\n6linear/zero_fraction/total_zero/zero_count_8/pred_id:0\0226linear/zero_fraction/total_zero/zero_count_8/pred_id:0\022\200\001\n*linear/linear_model/Slope/weights/part_0:0\022Rlinear/zero_fraction/total_zero/zero_count_8/zero_fraction/ReadVariableOp/Switch:0\022i\n(linear/zero_fraction/total_size/Size_8:0\022=linear/zero_fraction/total_zero/zero_count_8/ToFloat/Switch:02\376\n\n\373\n\nIlinear/zero_fraction/total_zero/zero_count_8/zero_fraction/cond/cond_text\022Ilinear/zero_fraction/total_zero/zero_count_8/zero_fraction/cond/pred_id:0\032Jlinear/zero_fraction/total_zero/zero_count_8/zero_fraction/cond/switch_t:0 \001*\224\t\nKlinear/zero_fraction/total_zero/zero_count_8/zero_fraction/ReadVariableOp:0\nFlinear/zero_fraction/total_zero/zero_count_8/zero_fraction/cond/Cast:0\nTlinear/zero_fraction/total_zero/zero_count_8/zero_fraction/cond/count_nonzero/Cast:0\nUlinear/zero_fraction/total_zero/zero_count_8/zero_fraction/cond/count_nonzero/Const:0\n_linear/zero_fraction/total_zero/zero_count_8/zero_fraction/cond/count_nonzero/NotEqual/Switch:1\nXlinear/zero_fraction/total_zero/zero_count_8/zero_fraction/cond/count_nonzero/NotEqual:0\n]linear/zero_fraction/total_zero/zero_count_8/zero_fraction/cond/count_nonzero/nonzero_count:0\nUlinear/zero_fraction/total_zero/zero_count_8/zero_fraction/cond/count_nonzero/zeros:0\nIlinear/zero_fraction/total_zero/zero_count_8/zero_fraction/cond/pred_id:0\nJlinear/zero_fraction/total_zero/zero_count_8/zero_fraction/cond/switch_t:0\022\256\001\nKlinear/zero_fraction/total_zero/zero_count_8/zero_fraction/ReadVariableOp:0\022_linear/zero_fraction/total_zero/zero_count_8/zero_fraction/cond/count_nonzero/NotEqual/Switch:1\022\226\001\nIlinear/zero_fraction/total_zero/zero_count_8/zero_fraction/cond/pred_id:0\022Ilinear/zero_fraction/total_zero/zero_count_8/zero_fraction/cond/pred_id:02\304\n\n\301\n\nKlinear/zero_fraction/total_zero/zero_count_8/zero_fraction/cond/cond_text_1\022Ilinear/zero_fraction/total_zero/zero_count_8/zero_fraction/cond/pred_id:0\032Jlinear/zero_fraction/total_zero/zero_count_8/zero_fraction/cond/switch_f:0*\332\010\nKlinear/zero_fraction/total_zero/zero_count_8/zero_fraction/ReadVariableOp:0\nVlinear/zero_fraction/total_zero/zero_count_8/zero_fraction/cond/count_nonzero_1/Cast:0\nWlinear/zero_fraction/total_zero/zero_count_8/zero_fraction/cond/count_nonzero_1/Const:0\nalinear/zero_fraction/total_zero/zero_count_8/zero_fraction/cond/count_nonzero_1/NotEqual/Switch:0\nZlinear/zero_fraction/total_zero/zero_count_8/zero_fraction/cond/count_nonzero_1/NotEqual:0\n_linear/zero_fraction/total_zero/zero_count_8/zero_fraction/cond/count_nonzero_1/nonzero_count:0\nWlinear/zero_fraction/total_zero/zero_count_8/zero_fraction/cond/count_nonzero_1/zeros:0\nIlinear/zero_fraction/total_zero/zero_count_8/zero_fraction/cond/pred_id:0\nJlinear/zero_fraction/total_zero/zero_count_8/zero_fraction/cond/switch_f:0\022\226\001\nIlinear/zero_fraction/total_zero/zero_count_8/zero_fraction/cond/pred_id:0\022Ilinear/zero_fraction/total_zero/zero_count_8/zero_fraction/cond/pred_id:0\022\260\001\nKlinear/zero_fraction/total_zero/zero_count_8/zero_fraction/ReadVariableOp:0\022alinear/zero_fraction/total_zero/zero_count_8/zero_fraction/cond/count_nonzero_1/NotEqual/Switch:0"
      value: "\n6linear/zero_fraction/total_zero/zero_count_9/cond_text\0226linear/zero_fraction/total_zero/zero_count_9/pred_id:0\0327linear/zero_fraction/total_zero/zero_count_9/switch_t:0 \001*\231\002\n4linear/zero_fraction/total_zero/zero_count_9/Const:0\n6linear/zero_fraction/total_zero/zero_count_9/pred_id:0\n7linear/zero_fraction/total_zero/zero_count_9/switch_t:0\022p\n6linear/zero_fraction/total_zero/zero_count_9/pred_id:0\0226linear/zero_fraction/total_zero/zero_count_9/pred_id:0"
      value: "\n8linear/zero_fraction/total_zero/zero_count_9/cond_text_1\0226linear/zero_fraction/total_zero/zero_count_9/pred_id:0\0327linear/zero_fraction/total_zero/zero_count_9/switch_f:0*\252\031\n=linear/linear_model/Thal_embedding/embedding_weights/part_0:0\n(linear/zero_fraction/total_size/Size_9:0\n=linear/zero_fraction/total_zero/zero_count_9/ToFloat/Switch:0\n6linear/zero_fraction/total_zero/zero_count_9/ToFloat:0\n2linear/zero_fraction/total_zero/zero_count_9/mul:0\n6linear/zero_fraction/total_zero/zero_count_9/pred_id:0\n7linear/zero_fraction/total_zero/zero_count_9/switch_f:0\nHlinear/zero_fraction/total_zero/zero_count_9/zero_fraction/LessEqual/y:0\nFlinear/zero_fraction/total_zero/zero_count_9/zero_fraction/LessEqual:0\nRlinear/zero_fraction/total_zero/zero_count_9/zero_fraction/ReadVariableOp/Switch:0\nKlinear/zero_fraction/total_zero/zero_count_9/zero_fraction/ReadVariableOp:0\nAlinear/zero_fraction/total_zero/zero_count_9/zero_fraction/Size:0\nFlinear/zero_fraction/total_zero/zero_count_9/zero_fraction/cond/Cast:0\nGlinear/zero_fraction/total_zero/zero_count_9/zero_fraction/cond/Merge:0\nGlinear/zero_fraction/total_zero/zero_count_9/zero_fraction/cond/Merge:1\nHlinear/zero_fraction/total_zero/zero_count_9/zero_fraction/cond/Switch:0\nHlinear/zero_fraction/total_zero/zero_count_9/zero_fraction/cond/Switch:1\nTlinear/zero_fraction/total_zero/zero_count_9/zero_fraction/cond/count_nonzero/Cast:0\nUlinear/zero_fraction/total_zero/zero_count_9/zero_fraction/cond/count_nonzero/Const:0\n_linear/zero_fraction/total_zero/zero_count_9/zero_fraction/cond/count_nonzero/NotEqual/Switch:1\nXlinear/zero_fraction/total_zero/zero_count_9/zero_fraction/cond/count_nonzero/NotEqual:0\n]linear/zero_fraction/total_zero/zero_count_9/zero_fraction/cond/count_nonzero/nonzero_count:0\nUlinear/zero_fraction/total_zero/zero_count_9/zero_fraction/cond/count_nonzero/zeros:0\nVlinear/zero_fraction/total_zero/zero_count_9/zero_fraction/cond/count_nonzero_1/Cast:0\nWlinear/zero_fraction/total_zero/zero_count_9/zero_fraction/cond/count_nonzero_1/Const:0\nalinear/zero_fraction/total_zero/zero_count_9/zero_fraction/cond/count_nonzero_1/NotEqual/Switch:0\nZlinear/zero_fraction/total_zero/zero_count_9/zero_fraction/cond/count_nonzero_1/NotEqual:0\n_linear/zero_fraction/total_zero/zero_count_9/zero_fraction/cond/count_nonzero_1/nonzero_count:0\nWlinear/zero_fraction/total_zero/zero_count_9/zero_fraction/cond/count_nonzero_1/zeros:0\nIlinear/zero_fraction/total_zero/zero_count_9/zero_fraction/cond/pred_id:0\nJlinear/zero_fraction/total_zero/zero_count_9/zero_fraction/cond/switch_f:0\nJlinear/zero_fraction/total_zero/zero_count_9/zero_fraction/cond/switch_t:0\nTlinear/zero_fraction/total_zero/zero_count_9/zero_fraction/counts_to_fraction/Cast:0\nVlinear/zero_fraction/total_zero/zero_count_9/zero_fraction/counts_to_fraction/Cast_1:0\nSlinear/zero_fraction/total_zero/zero_count_9/zero_fraction/counts_to_fraction/sub:0\nWlinear/zero_fraction/total_zero/zero_count_9/zero_fraction/counts_to_fraction/truediv:0\nElinear/zero_fraction/total_zero/zero_count_9/zero_fraction/fraction:0\022i\n(linear/zero_fraction/total_size/Size_9:0\022=linear/zero_fraction/total_zero/zero_count_9/ToFloat/Switch:0\022p\n6linear/zero_fraction/total_zero/zero_count_9/pred_id:0\0226linear/zero_fraction/total_zero/zero_count_9/pred_id:0\022\223\001\n=linear/linear_model/Thal_embedding/embedding_weights/part_0:0\022Rlinear/zero_fraction/total_zero/zero_count_9/zero_fraction/ReadVariableOp/Switch:02\376\n\n\373\n\nIlinear/zero_fraction/total_zero/zero_count_9/zero_fraction/cond/cond_text\022Ilinear/zero_fraction/total_zero/zero_count_9/zero_fraction/cond/pred_id:0\032Jlinear/zero_fraction/total_zero/zero_count_9/zero_fraction/cond/switch_t:0 \001*\224\t\nKlinear/zero_fraction/total_zero/zero_count_9/zero_fraction/ReadVariableOp:0\nFlinear/zero_fraction/total_zero/zero_count_9/zero_fraction/cond/Cast:0\nTlinear/zero_fraction/total_zero/zero_count_9/zero_fraction/cond/count_nonzero/Cast:0\nUlinear/zero_fraction/total_zero/zero_count_9/zero_fraction/cond/count_nonzero/Const:0\n_linear/zero_fraction/total_zero/zero_count_9/zero_fraction/cond/count_nonzero/NotEqual/Switch:1\nXlinear/zero_fraction/total_zero/zero_count_9/zero_fraction/cond/count_nonzero/NotEqual:0\n]linear/zero_fraction/total_zero/zero_count_9/zero_fraction/cond/count_nonzero/nonzero_count:0\nUlinear/zero_fraction/total_zero/zero_count_9/zero_fraction/cond/count_nonzero/zeros:0\nIlinear/zero_fraction/total_zero/zero_count_9/zero_fraction/cond/pred_id:0\nJlinear/zero_fraction/total_zero/zero_count_9/zero_fraction/cond/switch_t:0\022\226\001\nIlinear/zero_fraction/total_zero/zero_count_9/zero_fraction/cond/pred_id:0\022Ilinear/zero_fraction/total_zero/zero_count_9/zero_fraction/cond/pred_id:0\022\256\001\nKlinear/zero_fraction/total_zero/zero_count_9/zero_fraction/ReadVariableOp:0\022_linear/zero_fraction/total_zero/zero_count_9/zero_fraction/cond/count_nonzero/NotEqual/Switch:12\304\n\n\301\n\nKlinear/zero_fraction/total_zero/zero_count_9/zero_fraction/cond/cond_text_1\022Ilinear/zero_fraction/total_zero/zero_count_9/zero_fraction/cond/pred_id:0\032Jlinear/zero_fraction/total_zero/zero_count_9/zero_fraction/cond/switch_f:0*\332\010\nKlinear/zero_fraction/total_zero/zero_count_9/zero_fraction/ReadVariableOp:0\nVlinear/zero_fraction/total_zero/zero_count_9/zero_fraction/cond/count_nonzero_1/Cast:0\nWlinear/zero_fraction/total_zero/zero_count_9/zero_fraction/cond/count_nonzero_1/Const:0\nalinear/zero_fraction/total_zero/zero_count_9/zero_fraction/cond/count_nonzero_1/NotEqual/Switch:0\nZlinear/zero_fraction/total_zero/zero_count_9/zero_fraction/cond/count_nonzero_1/NotEqual:0\n_linear/zero_fraction/total_zero/zero_count_9/zero_fraction/cond/count_nonzero_1/nonzero_count:0\nWlinear/zero_fraction/total_zero/zero_count_9/zero_fraction/cond/count_nonzero_1/zeros:0\nIlinear/zero_fraction/total_zero/zero_count_9/zero_fraction/cond/pred_id:0\nJlinear/zero_fraction/total_zero/zero_count_9/zero_fraction/cond/switch_f:0\022\226\001\nIlinear/zero_fraction/total_zero/zero_count_9/zero_fraction/cond/pred_id:0\022Ilinear/zero_fraction/total_zero/zero_count_9/zero_fraction/cond/pred_id:0\022\260\001\nKlinear/zero_fraction/total_zero/zero_count_9/zero_fraction/ReadVariableOp:0\022alinear/zero_fraction/total_zero/zero_count_9/zero_fraction/cond/count_nonzero_1/NotEqual/Switch:0"
      value: "\n7linear/zero_fraction/total_zero/zero_count_10/cond_text\0227linear/zero_fraction/total_zero/zero_count_10/pred_id:0\0328linear/zero_fraction/total_zero/zero_count_10/switch_t:0 \001*\236\002\n5linear/zero_fraction/total_zero/zero_count_10/Const:0\n7linear/zero_fraction/total_zero/zero_count_10/pred_id:0\n8linear/zero_fraction/total_zero/zero_count_10/switch_t:0\022r\n7linear/zero_fraction/total_zero/zero_count_10/pred_id:0\0227linear/zero_fraction/total_zero/zero_count_10/pred_id:0"
      value: "\n9linear/zero_fraction/total_zero/zero_count_10/cond_text_1\0227linear/zero_fraction/total_zero/zero_count_10/pred_id:0\0328linear/zero_fraction/total_zero/zero_count_10/switch_f:0*\277\031\n3linear/linear_model/Thal_embedding/weights/part_0:0\n)linear/zero_fraction/total_size/Size_10:0\n>linear/zero_fraction/total_zero/zero_count_10/ToFloat/Switch:0\n7linear/zero_fraction/total_zero/zero_count_10/ToFloat:0\n3linear/zero_fraction/total_zero/zero_count_10/mul:0\n7linear/zero_fraction/total_zero/zero_count_10/pred_id:0\n8linear/zero_fraction/total_zero/zero_count_10/switch_f:0\nIlinear/zero_fraction/total_zero/zero_count_10/zero_fraction/LessEqual/y:0\nGlinear/zero_fraction/total_zero/zero_count_10/zero_fraction/LessEqual:0\nSlinear/zero_fraction/total_zero/zero_count_10/zero_fraction/ReadVariableOp/Switch:0\nLlinear/zero_fraction/total_zero/zero_count_10/zero_fraction/ReadVariableOp:0\nBlinear/zero_fraction/total_zero/zero_count_10/zero_fraction/Size:0\nGlinear/zero_fraction/total_zero/zero_count_10/zero_fraction/cond/Cast:0\nHlinear/zero_fraction/total_zero/zero_count_10/zero_fraction/cond/Merge:0\nHlinear/zero_fraction/total_zero/zero_count_10/zero_fraction/cond/Merge:1\nIlinear/zero_fraction/total_zero/zero_count_10/zero_fraction/cond/Switch:0\nIlinear/zero_fraction/total_zero/zero_count_10/zero_fraction/cond/Switch:1\nUlinear/zero_fraction/total_zero/zero_count_10/zero_fraction/cond/count_nonzero/Cast:0\nVlinear/zero_fraction/total_zero/zero_count_10/zero_fraction/cond/count_nonzero/Const:0\n`linear/zero_fraction/total_zero/zero_count_10/zero_fraction/cond/count_nonzero/NotEqual/Switch:1\nYlinear/zero_fraction/total_zero/zero_count_10/zero_fraction/cond/count_nonzero/NotEqual:0\n^linear/zero_fraction/total_zero/zero_count_10/zero_fraction/cond/count_nonzero/nonzero_count:0\nVlinear/zero_fraction/total_zero/zero_count_10/zero_fraction/cond/count_nonzero/zeros:0\nWlinear/zero_fraction/total_zero/zero_count_10/zero_fraction/cond/count_nonzero_1/Cast:0\nXlinear/zero_fraction/total_zero/zero_count_10/zero_fraction/cond/count_nonzero_1/Const:0\nblinear/zero_fraction/total_zero/zero_count_10/zero_fraction/cond/count_nonzero_1/NotEqual/Switch:0\n[linear/zero_fraction/total_zero/zero_count_10/zero_fraction/cond/count_nonzero_1/NotEqual:0\n`linear/zero_fraction/total_zero/zero_count_10/zero_fraction/cond/count_nonzero_1/nonzero_count:0\nXlinear/zero_fraction/total_zero/zero_count_10/zero_fraction/cond/count_nonzero_1/zeros:0\nJlinear/zero_fraction/total_zero/zero_count_10/zero_fraction/cond/pred_id:0\nKlinear/zero_fraction/total_zero/zero_count_10/zero_fraction/cond/switch_f:0\nKlinear/zero_fraction/total_zero/zero_count_10/zero_fraction/cond/switch_t:0\nUlinear/zero_fraction/total_zero/zero_count_10/zero_fraction/counts_to_fraction/Cast:0\nWlinear/zero_fraction/total_zero/zero_count_10/zero_fraction/counts_to_fraction/Cast_1:0\nTlinear/zero_fraction/total_zero/zero_count_10/zero_fraction/counts_to_fraction/sub:0\nXlinear/zero_fraction/total_zero/zero_count_10/zero_fraction/counts_to_fraction/truediv:0\nFlinear/zero_fraction/total_zero/zero_count_10/zero_fraction/fraction:0\022r\n7linear/zero_fraction/total_zero/zero_count_10/pred_id:0\0227linear/zero_fraction/total_zero/zero_count_10/pred_id:0\022\212\001\n3linear/linear_model/Thal_embedding/weights/part_0:0\022Slinear/zero_fraction/total_zero/zero_count_10/zero_fraction/ReadVariableOp/Switch:0\022k\n)linear/zero_fraction/total_size/Size_10:0\022>linear/zero_fraction/total_zero/zero_count_10/ToFloat/Switch:02\217\013\n\214\013\nJlinear/zero_fraction/total_zero/zero_count_10/zero_fraction/cond/cond_text\022Jlinear/zero_fraction/total_zero/zero_count_10/zero_fraction/cond/pred_id:0\032Klinear/zero_fraction/total_zero/zero_count_10/zero_fraction/cond/switch_t:0 \001*\242\t\nLlinear/zero_fraction/total_zero/zero_count_10/zero_fraction/ReadVariableOp:0\nGlinear/zero_fraction/total_zero/zero_count_10/zero_fraction/cond/Cast:0\nUlinear/zero_fraction/total_zero/zero_count_10/zero_fraction/cond/count_nonzero/Cast:0\nVlinear/zero_fraction/total_zero/zero_count_10/zero_fraction/cond/count_nonzero/Const:0\n`linear/zero_fraction/total_zero/zero_count_10/zero_fraction/cond/count_nonzero/NotEqual/Switch:1\nYlinear/zero_fraction/total_zero/zero_count_10/zero_fraction/cond/count_nonzero/NotEqual:0\n^linear/zero_fraction/total_zero/zero_count_10/zero_fraction/cond/count_nonzero/nonzero_count:0\nVlinear/zero_fraction/total_zero/zero_count_10/zero_fraction/cond/count_nonzero/zeros:0\nJlinear/zero_fraction/total_zero/zero_count_10/zero_fraction/cond/pred_id:0\nKlinear/zero_fraction/total_zero/zero_count_10/zero_fraction/cond/switch_t:0\022\260\001\nLlinear/zero_fraction/total_zero/zero_count_10/zero_fraction/ReadVariableOp:0\022`linear/zero_fraction/total_zero/zero_count_10/zero_fraction/cond/count_nonzero/NotEqual/Switch:1\022\230\001\nJlinear/zero_fraction/total_zero/zero_count_10/zero_fraction/cond/pred_id:0\022Jlinear/zero_fraction/total_zero/zero_count_10/zero_fraction/cond/pred_id:02\324\n\n\321\n\nLlinear/zero_fraction/total_zero/zero_count_10/zero_fraction/cond/cond_text_1\022Jlinear/zero_fraction/total_zero/zero_count_10/zero_fraction/cond/pred_id:0\032Klinear/zero_fraction/total_zero/zero_count_10/zero_fraction/cond/switch_f:0*\347\010\nLlinear/zero_fraction/total_zero/zero_count_10/zero_fraction/ReadVariableOp:0\nWlinear/zero_fraction/total_zero/zero_count_10/zero_fraction/cond/count_nonzero_1/Cast:0\nXlinear/zero_fraction/total_zero/zero_count_10/zero_fraction/cond/count_nonzero_1/Const:0\nblinear/zero_fraction/total_zero/zero_count_10/zero_fraction/cond/count_nonzero_1/NotEqual/Switch:0\n[linear/zero_fraction/total_zero/zero_count_10/zero_fraction/cond/count_nonzero_1/NotEqual:0\n`linear/zero_fraction/total_zero/zero_count_10/zero_fraction/cond/count_nonzero_1/nonzero_count:0\nXlinear/zero_fraction/total_zero/zero_count_10/zero_fraction/cond/count_nonzero_1/zeros:0\nJlinear/zero_fraction/total_zero/zero_count_10/zero_fraction/cond/pred_id:0\nKlinear/zero_fraction/total_zero/zero_count_10/zero_fraction/cond/switch_f:0\022\262\001\nLlinear/zero_fraction/total_zero/zero_count_10/zero_fraction/ReadVariableOp:0\022blinear/zero_fraction/total_zero/zero_count_10/zero_fraction/cond/count_nonzero_1/NotEqual/Switch:0\022\230\001\nJlinear/zero_fraction/total_zero/zero_count_10/zero_fraction/cond/pred_id:0\022Jlinear/zero_fraction/total_zero/zero_count_10/zero_fraction/cond/pred_id:0"
      value: "\n7linear/zero_fraction/total_zero/zero_count_11/cond_text\0227linear/zero_fraction/total_zero/zero_count_11/pred_id:0\0328linear/zero_fraction/total_zero/zero_count_11/switch_t:0 \001*\236\002\n5linear/zero_fraction/total_zero/zero_count_11/Const:0\n7linear/zero_fraction/total_zero/zero_count_11/pred_id:0\n8linear/zero_fraction/total_zero/zero_count_11/switch_t:0\022r\n7linear/zero_fraction/total_zero/zero_count_11/pred_id:0\0227linear/zero_fraction/total_zero/zero_count_11/pred_id:0"
      value: "\n9linear/zero_fraction/total_zero/zero_count_11/cond_text_1\0227linear/zero_fraction/total_zero/zero_count_11/pred_id:0\0328linear/zero_fraction/total_zero/zero_count_11/switch_f:0*\277\031\n3linear/linear_model/Thal_indicator/weights/part_0:0\n)linear/zero_fraction/total_size/Size_11:0\n>linear/zero_fraction/total_zero/zero_count_11/ToFloat/Switch:0\n7linear/zero_fraction/total_zero/zero_count_11/ToFloat:0\n3linear/zero_fraction/total_zero/zero_count_11/mul:0\n7linear/zero_fraction/total_zero/zero_count_11/pred_id:0\n8linear/zero_fraction/total_zero/zero_count_11/switch_f:0\nIlinear/zero_fraction/total_zero/zero_count_11/zero_fraction/LessEqual/y:0\nGlinear/zero_fraction/total_zero/zero_count_11/zero_fraction/LessEqual:0\nSlinear/zero_fraction/total_zero/zero_count_11/zero_fraction/ReadVariableOp/Switch:0\nLlinear/zero_fraction/total_zero/zero_count_11/zero_fraction/ReadVariableOp:0\nBlinear/zero_fraction/total_zero/zero_count_11/zero_fraction/Size:0\nGlinear/zero_fraction/total_zero/zero_count_11/zero_fraction/cond/Cast:0\nHlinear/zero_fraction/total_zero/zero_count_11/zero_fraction/cond/Merge:0\nHlinear/zero_fraction/total_zero/zero_count_11/zero_fraction/cond/Merge:1\nIlinear/zero_fraction/total_zero/zero_count_11/zero_fraction/cond/Switch:0\nIlinear/zero_fraction/total_zero/zero_count_11/zero_fraction/cond/Switch:1\nUlinear/zero_fraction/total_zero/zero_count_11/zero_fraction/cond/count_nonzero/Cast:0\nVlinear/zero_fraction/total_zero/zero_count_11/zero_fraction/cond/count_nonzero/Const:0\n`linear/zero_fraction/total_zero/zero_count_11/zero_fraction/cond/count_nonzero/NotEqual/Switch:1\nYlinear/zero_fraction/total_zero/zero_count_11/zero_fraction/cond/count_nonzero/NotEqual:0\n^linear/zero_fraction/total_zero/zero_count_11/zero_fraction/cond/count_nonzero/nonzero_count:0\nVlinear/zero_fraction/total_zero/zero_count_11/zero_fraction/cond/count_nonzero/zeros:0\nWlinear/zero_fraction/total_zero/zero_count_11/zero_fraction/cond/count_nonzero_1/Cast:0\nXlinear/zero_fraction/total_zero/zero_count_11/zero_fraction/cond/count_nonzero_1/Const:0\nblinear/zero_fraction/total_zero/zero_count_11/zero_fraction/cond/count_nonzero_1/NotEqual/Switch:0\n[linear/zero_fraction/total_zero/zero_count_11/zero_fraction/cond/count_nonzero_1/NotEqual:0\n`linear/zero_fraction/total_zero/zero_count_11/zero_fraction/cond/count_nonzero_1/nonzero_count:0\nXlinear/zero_fraction/total_zero/zero_count_11/zero_fraction/cond/count_nonzero_1/zeros:0\nJlinear/zero_fraction/total_zero/zero_count_11/zero_fraction/cond/pred_id:0\nKlinear/zero_fraction/total_zero/zero_count_11/zero_fraction/cond/switch_f:0\nKlinear/zero_fraction/total_zero/zero_count_11/zero_fraction/cond/switch_t:0\nUlinear/zero_fraction/total_zero/zero_count_11/zero_fraction/counts_to_fraction/Cast:0\nWlinear/zero_fraction/total_zero/zero_count_11/zero_fraction/counts_to_fraction/Cast_1:0\nTlinear/zero_fraction/total_zero/zero_count_11/zero_fraction/counts_to_fraction/sub:0\nXlinear/zero_fraction/total_zero/zero_count_11/zero_fraction/counts_to_fraction/truediv:0\nFlinear/zero_fraction/total_zero/zero_count_11/zero_fraction/fraction:0\022r\n7linear/zero_fraction/total_zero/zero_count_11/pred_id:0\0227linear/zero_fraction/total_zero/zero_count_11/pred_id:0\022\212\001\n3linear/linear_model/Thal_indicator/weights/part_0:0\022Slinear/zero_fraction/total_zero/zero_count_11/zero_fraction/ReadVariableOp/Switch:0\022k\n)linear/zero_fraction/total_size/Size_11:0\022>linear/zero_fraction/total_zero/zero_count_11/ToFloat/Switch:02\217\013\n\214\013\nJlinear/zero_fraction/total_zero/zero_count_11/zero_fraction/cond/cond_text\022Jlinear/zero_fraction/total_zero/zero_count_11/zero_fraction/cond/pred_id:0\032Klinear/zero_fraction/total_zero/zero_count_11/zero_fraction/cond/switch_t:0 \001*\242\t\nLlinear/zero_fraction/total_zero/zero_count_11/zero_fraction/ReadVariableOp:0\nGlinear/zero_fraction/total_zero/zero_count_11/zero_fraction/cond/Cast:0\nUlinear/zero_fraction/total_zero/zero_count_11/zero_fraction/cond/count_nonzero/Cast:0\nVlinear/zero_fraction/total_zero/zero_count_11/zero_fraction/cond/count_nonzero/Const:0\n`linear/zero_fraction/total_zero/zero_count_11/zero_fraction/cond/count_nonzero/NotEqual/Switch:1\nYlinear/zero_fraction/total_zero/zero_count_11/zero_fraction/cond/count_nonzero/NotEqual:0\n^linear/zero_fraction/total_zero/zero_count_11/zero_fraction/cond/count_nonzero/nonzero_count:0\nVlinear/zero_fraction/total_zero/zero_count_11/zero_fraction/cond/count_nonzero/zeros:0\nJlinear/zero_fraction/total_zero/zero_count_11/zero_fraction/cond/pred_id:0\nKlinear/zero_fraction/total_zero/zero_count_11/zero_fraction/cond/switch_t:0\022\230\001\nJlinear/zero_fraction/total_zero/zero_count_11/zero_fraction/cond/pred_id:0\022Jlinear/zero_fraction/total_zero/zero_count_11/zero_fraction/cond/pred_id:0\022\260\001\nLlinear/zero_fraction/total_zero/zero_count_11/zero_fraction/ReadVariableOp:0\022`linear/zero_fraction/total_zero/zero_count_11/zero_fraction/cond/count_nonzero/NotEqual/Switch:12\324\n\n\321\n\nLlinear/zero_fraction/total_zero/zero_count_11/zero_fraction/cond/cond_text_1\022Jlinear/zero_fraction/total_zero/zero_count_11/zero_fraction/cond/pred_id:0\032Klinear/zero_fraction/total_zero/zero_count_11/zero_fraction/cond/switch_f:0*\347\010\nLlinear/zero_fraction/total_zero/zero_count_11/zero_fraction/ReadVariableOp:0\nWlinear/zero_fraction/total_zero/zero_count_11/zero_fraction/cond/count_nonzero_1/Cast:0\nXlinear/zero_fraction/total_zero/zero_count_11/zero_fraction/cond/count_nonzero_1/Const:0\nblinear/zero_fraction/total_zero/zero_count_11/zero_fraction/cond/count_nonzero_1/NotEqual/Switch:0\n[linear/zero_fraction/total_zero/zero_count_11/zero_fraction/cond/count_nonzero_1/NotEqual:0\n`linear/zero_fraction/total_zero/zero_count_11/zero_fraction/cond/count_nonzero_1/nonzero_count:0\nXlinear/zero_fraction/total_zero/zero_count_11/zero_fraction/cond/count_nonzero_1/zeros:0\nJlinear/zero_fraction/total_zero/zero_count_11/zero_fraction/cond/pred_id:0\nKlinear/zero_fraction/total_zero/zero_count_11/zero_fraction/cond/switch_f:0\022\262\001\nLlinear/zero_fraction/total_zero/zero_count_11/zero_fraction/ReadVariableOp:0\022blinear/zero_fraction/total_zero/zero_count_11/zero_fraction/cond/count_nonzero_1/NotEqual/Switch:0\022\230\001\nJlinear/zero_fraction/total_zero/zero_count_11/zero_fraction/cond/pred_id:0\022Jlinear/zero_fraction/total_zero/zero_count_11/zero_fraction/cond/pred_id:0"
      value: "\n%linear/zero_fraction_1/cond/cond_text\022%linear/zero_fraction_1/cond/pred_id:0\032&linear/zero_fraction_1/cond/switch_t:0 \001*\304\005\n<linear/linear_model/linear_model/linear_model/weighted_sum:0\n\"linear/zero_fraction_1/cond/Cast:0\n0linear/zero_fraction_1/cond/count_nonzero/Cast:0\n1linear/zero_fraction_1/cond/count_nonzero/Const:0\n;linear/zero_fraction_1/cond/count_nonzero/NotEqual/Switch:1\n4linear/zero_fraction_1/cond/count_nonzero/NotEqual:0\n9linear/zero_fraction_1/cond/count_nonzero/nonzero_count:0\n1linear/zero_fraction_1/cond/count_nonzero/zeros:0\n%linear/zero_fraction_1/cond/pred_id:0\n&linear/zero_fraction_1/cond/switch_t:0\022N\n%linear/zero_fraction_1/cond/pred_id:0\022%linear/zero_fraction_1/cond/pred_id:0\022{\n<linear/linear_model/linear_model/linear_model/weighted_sum:0\022;linear/zero_fraction_1/cond/count_nonzero/NotEqual/Switch:1"
      value: "\n\'linear/zero_fraction_1/cond/cond_text_1\022%linear/zero_fraction_1/cond/pred_id:0\032&linear/zero_fraction_1/cond/switch_f:0*\256\005\n<linear/linear_model/linear_model/linear_model/weighted_sum:0\n2linear/zero_fraction_1/cond/count_nonzero_1/Cast:0\n3linear/zero_fraction_1/cond/count_nonzero_1/Const:0\n=linear/zero_fraction_1/cond/count_nonzero_1/NotEqual/Switch:0\n6linear/zero_fraction_1/cond/count_nonzero_1/NotEqual:0\n;linear/zero_fraction_1/cond/count_nonzero_1/nonzero_count:0\n3linear/zero_fraction_1/cond/count_nonzero_1/zeros:0\n%linear/zero_fraction_1/cond/pred_id:0\n&linear/zero_fraction_1/cond/switch_f:0\022N\n%linear/zero_fraction_1/cond/pred_id:0\022%linear/zero_fraction_1/cond/pred_id:0\022}\n<linear/linear_model/linear_model/linear_model/weighted_sum:0\022=linear/zero_fraction_1/cond/count_nonzero_1/NotEqual/Switch:0"
    }
  }
}
collection_def {
  key: "global_step"
  value {
    bytes_list {
      value: "\n\rglobal_step:0\022\022global_step/Assign\032\022global_step/read:02\037global_step/Initializer/zeros:0H\003"
    }
  }
}
collection_def {
  key: "saved_model_main_op"
  value {
    node_list {
      value: "group_deps"
    }
  }
}
collection_def {
  key: "summaries"
  value {
    node_list {
      value: "dnn/dnn/hiddenlayer_0/fraction_of_zero_values:0"
      value: "dnn/dnn/hiddenlayer_0/activation:0"
      value: "dnn/dnn/hiddenlayer_1/fraction_of_zero_values:0"
      value: "dnn/dnn/hiddenlayer_1/activation:0"
      value: "dnn/dnn/hiddenlayer_2/fraction_of_zero_values:0"
      value: "dnn/dnn/hiddenlayer_2/activation:0"
      value: "dnn/dnn/logits/fraction_of_zero_values:0"
      value: "dnn/dnn/logits/activation:0"
      value: "linear/bias:0"
      value: "linear/fraction_of_zero_weights:0"
      value: "linear/linear/fraction_of_zero_values:0"
      value: "linear/linear/activation:0"
    }
  }
}
collection_def {
  key: "table_initializer"
  value {
    node_list {
      value: "dnn/input_from_feature_columns/input_layer/Thal_embedding/Thal_lookup/hash_table/table_init/LookupTableImportV2"
      value: "linear/linear_model/linear_model/linear_model/Age_bucketized_X_Thal_indicator/Thal_lookup/hash_table/table_init/LookupTableImportV2"
    }
  }
}
collection_def {
  key: "trainable_variables"
  value {
    bytes_list {
      value: "\nTdnn/input_from_feature_columns/input_layer/Thal_embedding/embedding_weights/part_0:0\022Ydnn/input_from_feature_columns/input_layer/Thal_embedding/embedding_weights/part_0/Assign\032hdnn/input_from_feature_columns/input_layer/Thal_embedding/embedding_weights/part_0/Read/ReadVariableOp:0\"Y\nKdnn/input_from_feature_columns/input_layer/Thal_embedding/embedding_weights\022\002\003\010\032\002\000\000\"\002\003\010(\0012qdnn/input_from_feature_columns/input_layer/Thal_embedding/embedding_weights/part_0/Initializer/truncated_normal:08\001"
      value: "\n!dnn/hiddenlayer_0/kernel/part_0:0\022&dnn/hiddenlayer_0/kernel/part_0/Assign\0325dnn/hiddenlayer_0/kernel/part_0/Read/ReadVariableOp:0\"(\n\030dnn/hiddenlayer_0/kernel\022\003\035\350\007\032\002\000\000\"\003\035\350\007(\0012<dnn/hiddenlayer_0/kernel/part_0/Initializer/random_uniform:08\001"
      value: "\n\037dnn/hiddenlayer_0/bias/part_0:0\022$dnn/hiddenlayer_0/bias/part_0/Assign\0323dnn/hiddenlayer_0/bias/part_0/Read/ReadVariableOp:0\"#\n\026dnn/hiddenlayer_0/bias\022\002\350\007\032\001\000\"\002\350\007(\00121dnn/hiddenlayer_0/bias/part_0/Initializer/zeros:08\001"
      value: "\n!dnn/hiddenlayer_1/kernel/part_0:0\022&dnn/hiddenlayer_1/kernel/part_0/Assign\0325dnn/hiddenlayer_1/kernel/part_0/Read/ReadVariableOp:0\"*\n\030dnn/hiddenlayer_1/kernel\022\004\350\007\364\003\032\002\000\000\"\004\350\007\364\003(\0012<dnn/hiddenlayer_1/kernel/part_0/Initializer/random_uniform:08\001"
      value: "\n\037dnn/hiddenlayer_1/bias/part_0:0\022$dnn/hiddenlayer_1/bias/part_0/Assign\0323dnn/hiddenlayer_1/bias/part_0/Read/ReadVariableOp:0\"#\n\026dnn/hiddenlayer_1/bias\022\002\364\003\032\001\000\"\002\364\003(\00121dnn/hiddenlayer_1/bias/part_0/Initializer/zeros:08\001"
      value: "\n!dnn/hiddenlayer_2/kernel/part_0:0\022&dnn/hiddenlayer_2/kernel/part_0/Assign\0325dnn/hiddenlayer_2/kernel/part_0/Read/ReadVariableOp:0\"(\n\030dnn/hiddenlayer_2/kernel\022\003\364\003d\032\002\000\000\"\003\364\003d(\0012<dnn/hiddenlayer_2/kernel/part_0/Initializer/random_uniform:08\001"
      value: "\n\037dnn/hiddenlayer_2/bias/part_0:0\022$dnn/hiddenlayer_2/bias/part_0/Assign\0323dnn/hiddenlayer_2/bias/part_0/Read/ReadVariableOp:0\"!\n\026dnn/hiddenlayer_2/bias\022\001d\032\001\000\"\001d(\00121dnn/hiddenlayer_2/bias/part_0/Initializer/zeros:08\001"
      value: "\n\032dnn/logits/kernel/part_0:0\022\037dnn/logits/kernel/part_0/Assign\032.dnn/logits/kernel/part_0/Read/ReadVariableOp:0\"\037\n\021dnn/logits/kernel\022\002d\001\032\002\000\000\"\002d\001(\00125dnn/logits/kernel/part_0/Initializer/random_uniform:08\001"
      value: "\n\030dnn/logits/bias/part_0:0\022\035dnn/logits/bias/part_0/Assign\032,dnn/logits/bias/part_0/Read/ReadVariableOp:0\"\032\n\017dnn/logits/bias\022\001\001\032\001\000\"\001\001(\0012*dnn/logits/bias/part_0/Initializer/zeros:08\001"
      value: "\n(linear/linear_model/Age/weights/part_0:0\022-linear/linear_model/Age/weights/part_0/Assign\032<linear/linear_model/Age/weights/part_0/Read/ReadVariableOp:0\"-\n\037linear/linear_model/Age/weights\022\002\001\001\032\002\000\000\"\002\001\001(\0012:linear/linear_model/Age/weights/part_0/Initializer/zeros:08\001"
      value: "\n3linear/linear_model/Age_bucketized/weights/part_0:0\0228linear/linear_model/Age_bucketized/weights/part_0/Assign\032Glinear/linear_model/Age_bucketized/weights/part_0/Read/ReadVariableOp:0\"8\n*linear/linear_model/Age_bucketized/weights\022\002\013\001\032\002\000\000\"\002\013\001(\0012Elinear/linear_model/Age_bucketized/weights/part_0/Initializer/zeros:08\001"
      value: "\nDlinear/linear_model/Age_bucketized_X_Thal_indicator/weights/part_0:0\022Ilinear/linear_model/Age_bucketized_X_Thal_indicator/weights/part_0/Assign\032Xlinear/linear_model/Age_bucketized_X_Thal_indicator/weights/part_0/Read/ReadVariableOp:0\"K\n;linear/linear_model/Age_bucketized_X_Thal_indicator/weights\022\003\350\007\001\032\002\000\000\"\003\350\007\001(\0012Vlinear/linear_model/Age_bucketized_X_Thal_indicator/weights/part_0/Initializer/zeros:08\001"
      value: "\n\'linear/linear_model/Ca/weights/part_0:0\022,linear/linear_model/Ca/weights/part_0/Assign\032;linear/linear_model/Ca/weights/part_0/Read/ReadVariableOp:0\",\n\036linear/linear_model/Ca/weights\022\002\001\001\032\002\000\000\"\002\001\001(\00129linear/linear_model/Ca/weights/part_0/Initializer/zeros:08\001"
      value: "\n)linear/linear_model/Chol/weights/part_0:0\022.linear/linear_model/Chol/weights/part_0/Assign\032=linear/linear_model/Chol/weights/part_0/Read/ReadVariableOp:0\".\n linear/linear_model/Chol/weights\022\002\001\001\032\002\000\000\"\002\001\001(\0012;linear/linear_model/Chol/weights/part_0/Initializer/zeros:08\001"
      value: "\n(linear/linear_model/Fbs/weights/part_0:0\022-linear/linear_model/Fbs/weights/part_0/Assign\032<linear/linear_model/Fbs/weights/part_0/Read/ReadVariableOp:0\"-\n\037linear/linear_model/Fbs/weights\022\002\001\001\032\002\000\000\"\002\001\001(\0012:linear/linear_model/Fbs/weights/part_0/Initializer/zeros:08\001"
      value: "\n,linear/linear_model/Oldpeak/weights/part_0:0\0221linear/linear_model/Oldpeak/weights/part_0/Assign\032@linear/linear_model/Oldpeak/weights/part_0/Read/ReadVariableOp:0\"1\n#linear/linear_model/Oldpeak/weights\022\002\001\001\032\002\000\000\"\002\001\001(\0012>linear/linear_model/Oldpeak/weights/part_0/Initializer/zeros:08\001"
      value: "\n(linear/linear_model/Sex/weights/part_0:0\022-linear/linear_model/Sex/weights/part_0/Assign\032<linear/linear_model/Sex/weights/part_0/Read/ReadVariableOp:0\"-\n\037linear/linear_model/Sex/weights\022\002\001\001\032\002\000\000\"\002\001\001(\0012:linear/linear_model/Sex/weights/part_0/Initializer/zeros:08\001"
      value: "\n*linear/linear_model/Slope/weights/part_0:0\022/linear/linear_model/Slope/weights/part_0/Assign\032>linear/linear_model/Slope/weights/part_0/Read/ReadVariableOp:0\"/\n!linear/linear_model/Slope/weights\022\002\001\001\032\002\000\000\"\002\001\001(\0012<linear/linear_model/Slope/weights/part_0/Initializer/zeros:08\001"
      value: "\n=linear/linear_model/Thal_embedding/embedding_weights/part_0:0\022Blinear/linear_model/Thal_embedding/embedding_weights/part_0/Assign\032Qlinear/linear_model/Thal_embedding/embedding_weights/part_0/Read/ReadVariableOp:0\"B\n4linear/linear_model/Thal_embedding/embedding_weights\022\002\003\010\032\002\000\000\"\002\003\010(\0012Zlinear/linear_model/Thal_embedding/embedding_weights/part_0/Initializer/truncated_normal:08\001"
      value: "\n3linear/linear_model/Thal_embedding/weights/part_0:0\0228linear/linear_model/Thal_embedding/weights/part_0/Assign\032Glinear/linear_model/Thal_embedding/weights/part_0/Read/ReadVariableOp:0\"8\n*linear/linear_model/Thal_embedding/weights\022\002\010\001\032\002\000\000\"\002\010\001(\0012Elinear/linear_model/Thal_embedding/weights/part_0/Initializer/zeros:08\001"
      value: "\n3linear/linear_model/Thal_indicator/weights/part_0:0\0228linear/linear_model/Thal_indicator/weights/part_0/Assign\032Glinear/linear_model/Thal_indicator/weights/part_0/Read/ReadVariableOp:0\"8\n*linear/linear_model/Thal_indicator/weights\022\002\003\001\032\002\000\000\"\002\003\001(\0012Elinear/linear_model/Thal_indicator/weights/part_0/Initializer/zeros:08\001"
      value: "\n)linear/linear_model/bias_weights/part_0:0\022.linear/linear_model/bias_weights/part_0/Assign\032=linear/linear_model/bias_weights/part_0/Read/ReadVariableOp:0\"+\n linear/linear_model/bias_weights\022\001\001\032\001\000\"\001\001(\0012;linear/linear_model/bias_weights/part_0/Initializer/zeros:08\001"
    }
  }
}
collection_def {
  key: "variables"
  value {
    bytes_list {
      value: "\n\rglobal_step:0\022\022global_step/Assign\032\022global_step/read:02\037global_step/Initializer/zeros:0H\003"
      value: "\nTdnn/input_from_feature_columns/input_layer/Thal_embedding/embedding_weights/part_0:0\022Ydnn/input_from_feature_columns/input_layer/Thal_embedding/embedding_weights/part_0/Assign\032hdnn/input_from_feature_columns/input_layer/Thal_embedding/embedding_weights/part_0/Read/ReadVariableOp:0\"Y\nKdnn/input_from_feature_columns/input_layer/Thal_embedding/embedding_weights\022\002\003\010\032\002\000\000\"\002\003\010(\0012qdnn/input_from_feature_columns/input_layer/Thal_embedding/embedding_weights/part_0/Initializer/truncated_normal:08\001"
      value: "\n!dnn/hiddenlayer_0/kernel/part_0:0\022&dnn/hiddenlayer_0/kernel/part_0/Assign\0325dnn/hiddenlayer_0/kernel/part_0/Read/ReadVariableOp:0\"(\n\030dnn/hiddenlayer_0/kernel\022\003\035\350\007\032\002\000\000\"\003\035\350\007(\0012<dnn/hiddenlayer_0/kernel/part_0/Initializer/random_uniform:08\001"
      value: "\n\037dnn/hiddenlayer_0/bias/part_0:0\022$dnn/hiddenlayer_0/bias/part_0/Assign\0323dnn/hiddenlayer_0/bias/part_0/Read/ReadVariableOp:0\"#\n\026dnn/hiddenlayer_0/bias\022\002\350\007\032\001\000\"\002\350\007(\00121dnn/hiddenlayer_0/bias/part_0/Initializer/zeros:08\001"
      value: "\n!dnn/hiddenlayer_1/kernel/part_0:0\022&dnn/hiddenlayer_1/kernel/part_0/Assign\0325dnn/hiddenlayer_1/kernel/part_0/Read/ReadVariableOp:0\"*\n\030dnn/hiddenlayer_1/kernel\022\004\350\007\364\003\032\002\000\000\"\004\350\007\364\003(\0012<dnn/hiddenlayer_1/kernel/part_0/Initializer/random_uniform:08\001"
      value: "\n\037dnn/hiddenlayer_1/bias/part_0:0\022$dnn/hiddenlayer_1/bias/part_0/Assign\0323dnn/hiddenlayer_1/bias/part_0/Read/ReadVariableOp:0\"#\n\026dnn/hiddenlayer_1/bias\022\002\364\003\032\001\000\"\002\364\003(\00121dnn/hiddenlayer_1/bias/part_0/Initializer/zeros:08\001"
      value: "\n!dnn/hiddenlayer_2/kernel/part_0:0\022&dnn/hiddenlayer_2/kernel/part_0/Assign\0325dnn/hiddenlayer_2/kernel/part_0/Read/ReadVariableOp:0\"(\n\030dnn/hiddenlayer_2/kernel\022\003\364\003d\032\002\000\000\"\003\364\003d(\0012<dnn/hiddenlayer_2/kernel/part_0/Initializer/random_uniform:08\001"
      value: "\n\037dnn/hiddenlayer_2/bias/part_0:0\022$dnn/hiddenlayer_2/bias/part_0/Assign\0323dnn/hiddenlayer_2/bias/part_0/Read/ReadVariableOp:0\"!\n\026dnn/hiddenlayer_2/bias\022\001d\032\001\000\"\001d(\00121dnn/hiddenlayer_2/bias/part_0/Initializer/zeros:08\001"
      value: "\n\032dnn/logits/kernel/part_0:0\022\037dnn/logits/kernel/part_0/Assign\032.dnn/logits/kernel/part_0/Read/ReadVariableOp:0\"\037\n\021dnn/logits/kernel\022\002d\001\032\002\000\000\"\002d\001(\00125dnn/logits/kernel/part_0/Initializer/random_uniform:08\001"
      value: "\n\030dnn/logits/bias/part_0:0\022\035dnn/logits/bias/part_0/Assign\032,dnn/logits/bias/part_0/Read/ReadVariableOp:0\"\032\n\017dnn/logits/bias\022\001\001\032\001\000\"\001\001(\0012*dnn/logits/bias/part_0/Initializer/zeros:08\001"
      value: "\n(linear/linear_model/Age/weights/part_0:0\022-linear/linear_model/Age/weights/part_0/Assign\032<linear/linear_model/Age/weights/part_0/Read/ReadVariableOp:0\"-\n\037linear/linear_model/Age/weights\022\002\001\001\032\002\000\000\"\002\001\001(\0012:linear/linear_model/Age/weights/part_0/Initializer/zeros:08\001"
      value: "\n3linear/linear_model/Age_bucketized/weights/part_0:0\0228linear/linear_model/Age_bucketized/weights/part_0/Assign\032Glinear/linear_model/Age_bucketized/weights/part_0/Read/ReadVariableOp:0\"8\n*linear/linear_model/Age_bucketized/weights\022\002\013\001\032\002\000\000\"\002\013\001(\0012Elinear/linear_model/Age_bucketized/weights/part_0/Initializer/zeros:08\001"
      value: "\nDlinear/linear_model/Age_bucketized_X_Thal_indicator/weights/part_0:0\022Ilinear/linear_model/Age_bucketized_X_Thal_indicator/weights/part_0/Assign\032Xlinear/linear_model/Age_bucketized_X_Thal_indicator/weights/part_0/Read/ReadVariableOp:0\"K\n;linear/linear_model/Age_bucketized_X_Thal_indicator/weights\022\003\350\007\001\032\002\000\000\"\003\350\007\001(\0012Vlinear/linear_model/Age_bucketized_X_Thal_indicator/weights/part_0/Initializer/zeros:08\001"
      value: "\n\'linear/linear_model/Ca/weights/part_0:0\022,linear/linear_model/Ca/weights/part_0/Assign\032;linear/linear_model/Ca/weights/part_0/Read/ReadVariableOp:0\",\n\036linear/linear_model/Ca/weights\022\002\001\001\032\002\000\000\"\002\001\001(\00129linear/linear_model/Ca/weights/part_0/Initializer/zeros:08\001"
      value: "\n)linear/linear_model/Chol/weights/part_0:0\022.linear/linear_model/Chol/weights/part_0/Assign\032=linear/linear_model/Chol/weights/part_0/Read/ReadVariableOp:0\".\n linear/linear_model/Chol/weights\022\002\001\001\032\002\000\000\"\002\001\001(\0012;linear/linear_model/Chol/weights/part_0/Initializer/zeros:08\001"
      value: "\n(linear/linear_model/Fbs/weights/part_0:0\022-linear/linear_model/Fbs/weights/part_0/Assign\032<linear/linear_model/Fbs/weights/part_0/Read/ReadVariableOp:0\"-\n\037linear/linear_model/Fbs/weights\022\002\001\001\032\002\000\000\"\002\001\001(\0012:linear/linear_model/Fbs/weights/part_0/Initializer/zeros:08\001"
      value: "\n,linear/linear_model/Oldpeak/weights/part_0:0\0221linear/linear_model/Oldpeak/weights/part_0/Assign\032@linear/linear_model/Oldpeak/weights/part_0/Read/ReadVariableOp:0\"1\n#linear/linear_model/Oldpeak/weights\022\002\001\001\032\002\000\000\"\002\001\001(\0012>linear/linear_model/Oldpeak/weights/part_0/Initializer/zeros:08\001"
      value: "\n(linear/linear_model/Sex/weights/part_0:0\022-linear/linear_model/Sex/weights/part_0/Assign\032<linear/linear_model/Sex/weights/part_0/Read/ReadVariableOp:0\"-\n\037linear/linear_model/Sex/weights\022\002\001\001\032\002\000\000\"\002\001\001(\0012:linear/linear_model/Sex/weights/part_0/Initializer/zeros:08\001"
      value: "\n*linear/linear_model/Slope/weights/part_0:0\022/linear/linear_model/Slope/weights/part_0/Assign\032>linear/linear_model/Slope/weights/part_0/Read/ReadVariableOp:0\"/\n!linear/linear_model/Slope/weights\022\002\001\001\032\002\000\000\"\002\001\001(\0012<linear/linear_model/Slope/weights/part_0/Initializer/zeros:08\001"
      value: "\n=linear/linear_model/Thal_embedding/embedding_weights/part_0:0\022Blinear/linear_model/Thal_embedding/embedding_weights/part_0/Assign\032Qlinear/linear_model/Thal_embedding/embedding_weights/part_0/Read/ReadVariableOp:0\"B\n4linear/linear_model/Thal_embedding/embedding_weights\022\002\003\010\032\002\000\000\"\002\003\010(\0012Zlinear/linear_model/Thal_embedding/embedding_weights/part_0/Initializer/truncated_normal:08\001"
      value: "\n3linear/linear_model/Thal_embedding/weights/part_0:0\0228linear/linear_model/Thal_embedding/weights/part_0/Assign\032Glinear/linear_model/Thal_embedding/weights/part_0/Read/ReadVariableOp:0\"8\n*linear/linear_model/Thal_embedding/weights\022\002\010\001\032\002\000\000\"\002\010\001(\0012Elinear/linear_model/Thal_embedding/weights/part_0/Initializer/zeros:08\001"
      value: "\n3linear/linear_model/Thal_indicator/weights/part_0:0\0228linear/linear_model/Thal_indicator/weights/part_0/Assign\032Glinear/linear_model/Thal_indicator/weights/part_0/Read/ReadVariableOp:0\"8\n*linear/linear_model/Thal_indicator/weights\022\002\003\001\032\002\000\000\"\002\003\001(\0012Elinear/linear_model/Thal_indicator/weights/part_0/Initializer/zeros:08\001"
      value: "\n)linear/linear_model/bias_weights/part_0:0\022.linear/linear_model/bias_weights/part_0/Assign\032=linear/linear_model/bias_weights/part_0/Read/ReadVariableOp:0\"+\n linear/linear_model/bias_weights\022\001\001\032\001\000\"\001\001(\0012;linear/linear_model/bias_weights/part_0/Initializer/zeros:08\001"
    }
  }
}
signature_def {
  key: "predict"
  value {
    inputs {
      key: "Age"
      value {
        name: "Age_1:0"
        dtype: DT_INT32
        tensor_shape {
          dim {
            size: -1
          }
        }
      }
    }
    inputs {
      key: "Ca"
      value {
        name: "Ca_1:0"
        dtype: DT_INT32
        tensor_shape {
          dim {
            size: -1
          }
        }
      }
    }
    inputs {
      key: "Chol"
      value {
        name: "Chol_1:0"
        dtype: DT_INT32
        tensor_shape {
          dim {
            size: -1
          }
        }
      }
    }
    inputs {
      key: "Fbs"
      value {
        name: "Fbs_1:0"
        dtype: DT_INT32
        tensor_shape {
          dim {
            size: -1
          }
        }
      }
    }
    inputs {
      key: "Oldpeak"
      value {
        name: "Oldpeak_1:0"
        dtype: DT_INT32
        tensor_shape {
          dim {
            size: -1
          }
        }
      }
    }
    inputs {
      key: "Sex"
      value {
        name: "Sex_1:0"
        dtype: DT_INT32
        tensor_shape {
          dim {
            size: -1
          }
        }
      }
    }
    inputs {
      key: "Slope"
      value {
        name: "Slope_1:0"
        dtype: DT_INT32
        tensor_shape {
          dim {
            size: -1
          }
        }
      }
    }
    inputs {
      key: "Thal"
      value {
        name: "Thal_1:0"
        dtype: DT_STRING
        tensor_shape {
          dim {
            size: -1
          }
        }
      }
    }
    outputs {
      key: "predictions"
      value {
        name: "add:0"
        dtype: DT_FLOAT
        tensor_shape {
          dim {
            size: -1
          }
          dim {
            size: 1
          }
        }
      }
    }
    method_name: "tensorflow/serving/predict"
  }
}

